automl_surrogate/ranknet_checkpoint/checkpoints/epoch=2-step=17000.ckpt (torch, 334497 bytes, 199 tensors)

pipeline_encoder.node_homogenizer.op_hyperparams_embedder.encoders.dt.0.weight f4 [8, 3]
000000 53 f1 8f 3e 59 06 22 be 96 98 94 be b6 33 18 3f
       0.28113803 -0.15822734 -0.29022664 0.59453905
000010 52 48 37 be 00 61 dc be 70 28 4d 3f 5e 41 0a bb
       -0.17898682 -0.43042755 0.8013983 -0.002109609
000020 15 9f c7 bc 82 56 3c 3c 43 db 21 bd b6 4a 98 be
       -0.024367848 0.011495234 -0.039515745 -0.297445
000030 43 52 1a be 48 0e 81 3c fb f7 02 be 4e 73 e5 bc
       -0.15070443 0.01575388 -0.1278991 -0.028009083
000040 25 17 00 bf b4 be fd bd 04 17 a0 be 4a a1 5d be
       -0.50035316 -0.12389889 -0.3126756 -0.21643558
000050 aa 32 ea bd 51 18 0b 3f 2b 94 aa 3d 4d 9f 18 3e
       -0.11435445 0.5433398 0.08329042 0.14904518

pipeline_encoder.node_homogenizer.op_hyperparams_embedder.encoders.dt.0.bias f4 [8]
000000 ea a0 ef be a0 b3 34 be 4f 72 9a 3b 31 96 cc be
       -0.46802455 -0.17646646 0.0047133337 -0.39958337
000010 4e 6a ce be b0 9e d9 be f4 74 a1 be 7c 2e eb bd
       -0.4031548 -0.4250388 -0.3153454 -0.114834756

pipeline_encoder.node_homogenizer.op_hyperparams_embedder.encoders.dt.3.weight f4 [8, 8]
000000 92 4f 80 3e c6 00 bb 3e 8b d2 9c bd 8d 02 53 3e
       0.25060707 0.36524028 -0.076573454 0.20606442
000010 1d fd ab be c3 96 6f 3e 98 de d7 bd a7 de bd bd
       -0.33591548 0.23397355 -0.10540503 -0.09270983
000020 67 fe 6e be 2b d8 32 be ab 7f 30 3e 42 21 80 3e
       -0.23339234 -0.17465274 0.17236201 0.25025374
000030 0c 6a 38 3b 60 35 32 be b2 3b b4 3e 90 87 a6 3d
       0.002813938 -0.17403173 0.35201794 0.08131325
000040 0d d8 a6 bd c1 54 8a be f7 9c 8c be 64 60 a7 3d
       -0.08146677 -0.27017787 -0.27463505 0.08172682
000050 61 a7 ce bb f6 5b a9 3d 46 fb 64 39 06 78 9d be
       -0.006306574 0.08269493 0.00021837381 -0.30755633
000060 88 14 f6 3c 96 a7 3a 3f 5c b0 a8 3e f3 04 17 be
       0.030039087 0.72911966 0.32947052 -0.14747982
000070 09 8c 1e 3d 4f c6 a8 be 6f 86 9b be a5 e5 b2 3e
       0.038707767 -0.32963797 -0.30376002 0.3494083
000080 2d a1 2c bd 0d d9 a4 3e f5 d0 4c 3e 6f db 88 3d
       -0.042145897 0.32196847 0.20001586 0.06682479
000090 d7 86 4e be ea b8 ae 3e b2 2e c3 3d d6 33 91 3e
       -0.20168625 0.34125453 0.09530391 0.2835986
0000a0 7e 46 d0 bd 7d 88 dc 3e 99 5e 0f 3e bb b0 96 3e
       -0.10169695 0.43072882 0.1400093 0.2943171
0000b0 a8 cd 46 be a8 2f b1 3e 40 86 e8 3d 54 a2 85 bc
       -0.19414389 0.3460667 0.11353731 -0.016312756
0000c0 bf e9 e9 bd f1 cf 37 3e f9 d6 14 bd 49 63 25 be
       -0.11421537 0.17950417 -0.036337826 -0.16151156
0000d0 3c d1 a5 3e 2f db 01 3e 93 de 94 bd fe be 2f 3d
       0.32386196 0.12681268 -0.07269015 0.042906754
0000e0 70 7c 7f be 91 70 1a bf 72 08 95 3c e7 2f 6d be
       -0.24949813 -0.6032801 0.018192504 -0.23162805
0000f0 32 bd 86 bd 08 8f 97 be ca 78 a1 3e 4e ba 87 3d
       -0.06579055 -0.29601312 0.31537467 0.06627332

pipeline_encoder.node_homogenizer.op_hyperparams_embedder.encoders.dt.3.bias f4 [8]
000000 49 b2 eb 3d 15 ae 62 be 0e 94 80 3e 90 df 4b be
       0.115086146 -0.2213672 0.25112957 -0.19909501
000010 d2 b0 b5 be 25 bb 16 3d 8d 59 4b 3e e4 11 3d bd
       -0.35486466 0.03679957 0.1985838 -0.04615964

pipeline_encoder.node_homogenizer.op_hyperparams_embedder.encoders.fast_ica.0.weight f4 [8, 2]
000000 e9 e6 18 c0 0d 8a 67 bc 77 8e cb bf c5 e0 2d bf
       -2.3890936 -0.014132035 -1.5902852 -0.67921096
000010 0f 98 87 bf 69 27 d5 bb 97 be f4 bf c1 98 3a 3d
       -1.059328 -0.006504942 -1.9120663 0.045555834
000020 9b 76 e8 be 07 87 24 bf f6 1b 4a bf ba 72 b7 3c
       -0.4540299 -0.64268535 -0.78948915 0.022393573
000030 e4 ea 03 3f 24 f0 b3 bd 56 58 11 bf ed 86 3c bc
       0.5153029 -0.087860376 -0.56775415 -0.011506778

pipeline_encoder.node_homogenizer.op_hyperparams_embedder.encoders.fast_ica.0.bias f4 [8]
000000 4b 5d 1b 3e 39 f3 98 3d 06 62 91 3e 26 19 37 3e
       0.15172307 0.07468266 0.28395098 0.17880687
000010 b9 69 d5 be c8 16 97 3e 7c 07 ac bd 0f 82 25 bf
       -0.41682222 0.29509568 -0.08399865 -0.6465158

pipeline_encoder.node_homogenizer.op_hyperparams_embedder.encoders.fast_ica.3.weight f4 [8, 8]
000000 54 f7 f0 3e 6b 64 43 3d 35 df 43 3e 69 8b 80 3e
       0.47063696 0.047703188 0.19128115 0.25106362
000010 40 b4 cc bd 79 48 09 3e 36 34 8c be 64 fc 83 3e
       -0.099953175 0.13406552 -0.27383584 0.25778496
000020 37 61 3a 3f 23 7d cc 3e b9 f9 07 3f 36 38 63 3f
       0.7280459 0.39939222 0.5311542 0.88757646
000030 99 17 39 bd 2c 89 8c 3e 82 87 4a be 33 a5 12 bd
       -0.04518852 0.27448404 -0.19778255 -0.035802078
000040 f3 b6 96 3e 70 51 98 3f b4 88 dd 3c f0 db 6c 3e
       0.29436454 1.1899853 0.027042724 0.23130774
000050 98 8b d8 bd 00 51 e9 3d 28 d7 17 3e 39 97 70 be
       -0.105735004 0.11392403 0.1482817 -0.23495187
000060 51 a9 32 3e 53 5d 0d 3f f2 8a fe bd 6d 16 f9 bd
       0.17447402 0.55220526 -0.124288455 -0.121624805
000070 d4 dd a6 be 7a a9 c4 3d 58 b1 59 be 2e 7d 40 be
       -0.32591116 0.096026376 -0.21259058 -0.18797752
000080 c5 47 8e bf e5 90 21 bf ff 5d bd be 74 d3 c4 be
       -1.1115652 -0.63111717 -0.36985776 -0.38442576
000090 a0 f1 b5 bd 7a dc 33 be ab 09 2c 3e 77 d0 38 be
       -0.08883977 -0.17564574 0.16800563 -0.18048273
0000a0 55 ee bb 3e 44 b8 49 be 8e 94 b7 be 5b 02 23 3f
       0.3670527 -0.19699198 -0.35855526 0.6367547
0000b0 83 07 b1 be aa fa 2a bf bb 52 20 3f bc d3 9b 3d
       -0.34576043 -0.66788733 0.62626237 0.076087445
0000c0 8c f8 05 3f 07 04 1a 3f 64 ea 3b 3d 96 7f 96 3e
       0.5233238 0.60162395 0.04587783 0.29394215
0000d0 d9 7c 55 be b9 44 3a 3e 6a cf e0 3c 8d 9b 79 3e
       -0.20848407 0.18190278 0.027442653 0.24375744
0000e0 e5 cb 90 bd e1 2b 99 be aa 32 8b be 72 7d 36 be
       -0.0707014 -0.2991629 -0.2718709 -0.17821291
0000f0 84 70 ae be ab 41 29 be 4d 26 62 3d 5c e2 ac bd
       -0.34070218 -0.16528957 0.055212308 -0.08441612

pipeline_encoder.node_homogenizer.op_hyperparams_embedder.encoders.fast_ica.3.bias f4 [8]
000000 67 5d 37 3c 4b 94 22 be 2e a8 75 bc 54 f9 31 bd
       0.011191702 -0.15876882 -0.01499371 -0.04345067
000010 0f 3e 87 3c a3 9f d2 3d 4c e7 71 3f a9 c7 93 3d
       0.016509084 0.102843545 0.94493556 0.072158165

pipeline_encoder.node_homogenizer.op_hyperparams_embedder.encoders.isolation_forest_class.0.weight f4 [8, 3]
000000 fe 96 41 3e 24 a8 89 3e 48 5e bb 3c 19 d3 ec bc
       0.18905255 0.26886094 0.022872105 -0.028909253
000010 58 24 70 3e d4 cc 4a be e3 40 9e be 03 39 b3 3e
       0.23451364 -0.19804698 -0.3090888 0.35004434
000020 7b 1c 3b 3e e3 91 b1 3c 64 4e 9f 3e 66 18 65 bd
       0.18272583 0.02167601 0.31114495 -0.05593147
000030 e6 6d 9f be d3 a3 80 be d8 00 3f 3e 32 bc 53 3d
       -0.31138533 -0.25124988 0.18652666 0.05169315
000040 d2 b0 f1 3e 1a 66 90 bd 7f b0 47 bf 07 63 aa 3e
       0.47205216 -0.07050724 -0.78003687 0.33278677
000050 56 45 70 bd ff 58 87 3e 95 6b c4 bd 13 7f a1 3e
       -0.058659874 0.26435086 -0.09590832 0.31542262

pipeline_encoder.node_homogenizer.op_hyperparams_embedder.encoders.isolation_forest_class.0.bias f4 [8]
000000 77 1e f8 be 34 d0 b1 be 30 e0 b7 be 10 4b bc bd
       -0.48460743 -0.3472916 -0.3591323 -0.091940045
000010 1f 58 8b 3e 9f 8c 3a be a2 bc 82 3d 6c 42 84 be
       0.2721567 -0.18217705 0.06383635 -0.25831926

pipeline_encoder.node_homogenizer.op_hyperparams_embedder.encoders.isolation_forest_class.3.weight f4 [8, 8]
000000 37 45 83 3e 45 ec 8f 3e 96 55 1f be 3c 0e d9 3e
       0.25638744 0.28109947 -0.15559992 0.42393672
000010 f8 dd 83 3c 8a 06 b6 3e 81 47 b1 be da 99 df bd
       0.016097054 0.35551864 -0.34624866 -0.10918017
000020 34 b3 ec bc 0f 6c 99 be c9 66 38 bf 21 fe 3b bd
       -0.028894044 -0.29965255 -0.7203184 -0.045896653
000030 0b 48 7f bd cb 42 7a be f3 32 8a 3e 33 10 fb be
       -0.062324565 -0.24439542 0.26991996 -0.49035797
000040 1f 1c 8a be 27 d0 66 3e 47 49 be 3e c6 06 a3 3d
       -0.2697458 0.22540341 0.3716528 0.07960276
000050 39 31 06 be 8c db d0 3d 8d 65 4d be 5f 13 8e 3e
       -0.13104714 0.10198125 -0.2005827 0.27749154
000060 3c 2d 21 3e cd 88 13 3e 8c 34 8b bd 70 67 b6 3e
       0.15739912 0.14407654 -0.06797132 0.35625792
000070 13 e6 91 3e 51 f4 bd 3e 48 59 40 3d e3 5f 70 3e
       0.28495845 0.3710046 0.046960145 0.23474078
000080 a8 b6 7c bd dc 02 e0 bd 5a 45 25 3e a8 e0 b9 3d
       -0.061697632 -0.109380454 0.16139737 0.09076053
000090 2f 70 a1 3e 71 9f 07 3e 4c 30 db be a8 04 05 3f
       0.31530902 0.13244416 -0.42810285 0.5196023
0000a0 b2 9c 85 bd 05 4f c0 bc be 9b b5 3b 80 5c 14 be
       -0.06524028 -0.02347518 0.0055422476 -0.14488411
0000b0 61 a6 b4 3e fa 7e 43 be 40 86 0e bf 80 f2 7e 3e
       0.35283187 -0.19091406 -0.556736 0.24897194
0000c0 9b e6 ed bd 76 30 01 3d 8c dd 2b 3d 40 c9 5b 3e
       -0.1161625 0.031540357 0.04195933 0.2146349
0000d0 42 4c c9 3e dc b9 4f 3e f7 a4 2b bd b2 51 d5 3e
       0.39315993 0.20285743 -0.04190537 0.4166389
0000e0 91 9e 9f 3d 91 a5 b0 be d0 b7 f8 3e f7 84 bf bc
       0.07793916 -0.34501317 0.48577738 -0.023378832
0000f0 bd 2a c8 bc 3b 19 d8 3d ae 7b 19 bf 99 37 99 bd
       -0.024434442 0.10551687 -0.59954345 -0.074813075

pipeline_encoder.node_homogenizer.op_hyperparams_embedder.encoders.isolation_forest_class.3.bias f4 [8]
000000 81 b1 3c be db 47 f9 be 0a 6c 50 be 1e 4d 30 3e
       -0.18427087 -0.48687634 -0.20353714 0.17216918
000010 d2 7e 26 3e 57 9b 56 3e c9 12 91 bd c5 bd dc 3d
       0.16259316 0.20957695 -0.07083661 0.10778383

pipeline_encoder.node_homogenizer.op_hyperparams_embedder.encoders.knn.0.weight f4 [8, 3]
000000 87 26 8a be 80 56 40 be 94 03 72 be f9 ce 4e 3e
       -0.2698252 -0.18782997 -0.23634177 0.20196141
000010 e9 95 d9 3e 7d a0 4b bd cc c3 2a 3f 2e 86 4f 3d
       0.42497185 -0.0497136 0.6670501 0.050665073
000020 45 17 eb bd ca 2b 97 3e 51 b5 18 3f 6f de 46 3e
       -0.11479048 0.29525596 0.59651667 0.19420789
000030 3f ae 16 3c 44 e3 2f bf 8d 27 6c 3b 19 99 5f be
       0.009196817 -0.68706155 0.0036034316 -0.21835746
000040 2a 05 57 be ea b6 92 be 85 21 58 c0 a6 3a 63 bd
       -0.20998064 -0.28655177 -3.3770459 -0.055475853
000050 ce a0 d9 3b 0e 3c 29 be 6b 22 87 3e 81 74 31 bc
       0.006641484 -0.16526815 0.26393446 -0.010830999

pipeline_encoder.node_homogenizer.op_hyperparams_embedder.encoders.knn.0.bias f4 [8]
000000 bc 51 90 be 0e 3a 95 be e8 84 95 bb 79 bf 02 bf
       -0.28187358 -0.29145855 -0.004562963 -0.51073414
000010 86 b5 11 3f ce 51 e1 be 60 b0 66 3e bc 1f 96 3d
       0.5691761 -0.44007725 0.22528219 0.073302716

pipeline_encoder.node_homogenizer.op_hyperparams_embedder.encoders.knn.3.weight f4 [8, 8]
000000 10 f8 9a 3e 61 96 b8 3e 4e 05 f1 3d ae 63 c3 3d
       0.30267382 0.3605223 0.1176859 0.09540497
000010 5a dc 1c be 2d 5e f3 bd 35 a2 d8 3f 40 b2 98 3c
       -0.15318432 -0.11883197 1.6924502 0.018639684
000020 2d 4a 35 be da 2d 96 3b 51 f0 30 bd 50 16 be 3e
       -0.17704077 0.0045831027 -0.043197934 0.37126398
000030 e2 67 7d 3d 2c e5 a9 be 67 ad 1c 3e df 47 ab 3e
       0.06186665 -0.33182657 0.15300523 0.3345327
000040 2f 28 46 3d 96 fe 8e be 64 41 87 bd 54 43 65 3b
       0.048378166 -0.2792861 -0.06604269 0.0034982758
000050 4c e6 58 3e a0 66 37 3d dd 22 84 bf 4a 7a 96 be
       0.21181601 0.044775605 -1.032314 -0.29390174
000060 e9 63 04 3d fe 3a 7f 3d e3 64 b9 bd 91 0d 02 be
       0.032321844 0.06231212 -0.09052446 -0.12700488
000070 e7 a7 fe 3d 35 0f 9a 3c 45 a8 91 be 11 3a b5 3e
       0.124343686 0.01880608 -0.28448692 0.35395864
000080 a7 7d 7d be 4c e8 0e be 0d b2 08 3e 00 fb 6d be
       -0.24754964 -0.13955802 0.13349171 -0.2324028
000090 ab b5 3b 3e 6b d6 84 3e 41 04 b6 bf 7a e6 01 be
       0.1833102 0.25944838 -1.4220048 -0.12685576
0000a0 f8 76 b0 3e 29 0e c7 bd 33 32 a1 be 6b 9b 14 3e
       0.34465766 -0.09719498 -0.3148361 0.14512412
0000b0 6b c7 6f bd ef 22 a8 bd ad 63 cf 3f 60 08 c9 3e
       -0.05853979 -0.08209788 1.6202294 0.39264202
0000c0 be b1 96 3e ab aa ff be e9 cf 6a be 23 7e ee be
       0.29432482 -0.49934897 -0.22930874 -0.4658061
0000d0 65 4f 53 3f f2 a2 4e 3e 27 3d 1e be a2 37 c8 be
       0.8254302 0.20179346 -0.15453015 -0.39104944
0000e0 97 77 1f 3e 1e 86 8b bd 19 58 bb bd 81 01 57 3d
       0.15572964 -0.0681269 -0.09147663 0.05249167
0000f0 8b 00 cd 3d ab 1d a6 3e 78 74 d9 bf 0d 67 87 bd
       0.10009869 0.3244451 -1.6988668 -0.06611452

pipeline_encoder.node_homogenizer.op_hyperparams_embedder.encoders.knn.3.bias f4 [8]
000000 6c 40 9d bd a9 06 49 3e 05 9e 03 bf 6b 6c fd 3e
       -0.07678303 0.19631447 -0.51412994 0.4949678
000010 2a 5c 32 be 73 a8 74 3c ce f9 ef 3d d3 7b 39 3d
       -0.1741797 0.01493274 0.11717568 0.045284104

pipeline_encoder.node_homogenizer.op_hyperparams_embedder.encoders.lgbm.0.weight f4 [8, 7]
000000 06 95 a0 3e eb 11 29 3e 00 07 07 be 97 87 90 be
       0.31363696 0.16510741 -0.13186264 -0.28228447
000010 c8 a5 b5 bd dc 8e 17 bf 12 be 8d be c9 33 6b 3d
       -0.08869511 -0.5920236 -0.27684075 0.057422433
000020 c5 c2 7b bd 7c 8a de 3e d1 1d 7f 3e e6 f7 86 3e
       -0.061465044 0.4346503 0.24913718 0.26361006
000030 c2 24 95 be 6f 77 3a be 9a 22 36 3e cd 1c 63 3d
       -0.29129606 -0.18209623 0.17786637 0.05544739
000040 e0 f6 25 3e b0 cc 70 bd 07 39 dc bc 98 25 8b be
       0.16207457 -0.058788955 -0.026882662 -0.2717712
000050 b4 66 46 3e f2 96 17 bc e6 81 f2 bd 3b 98 a7 bf
       0.19375116 -0.009252297 -0.118411824 -1.3093332
000060 c7 24 2d bd 2c 11 1f be 4f 9d ef 3d c7 f7 4e 3e
       -0.0422714 -0.15533894 0.11699926 0.20211707
000070 83 c6 7e bd 40 9d 14 3e 5c a5 8b 3d f4 67 33 be
       -0.062201034 0.14513111 0.06818649 -0.17520124
000080 2d 98 d2 3e 8a f7 02 be 52 87 5a bd 61 73 bf 3e
       0.41131726 -0.12789741 -0.053351708 0.37392715
000090 2e 66 f0 be 9f 57 54 bd c8 04 f4 bd 13 a2 29 be
       -0.46952957 -0.051841374 -0.119149745 -0.16565733
0000a0 e6 3a b6 be 74 b0 4c 3e b8 8c c7 bc 15 5f 33 bd
       -0.3559181 0.19989187 -0.024359092 -0.04379185
0000b0 5a bb 7e 3e f1 27 d2 bd a9 85 26 3e 21 6f de bd
       0.24876156 -0.102615245 0.16261925 -0.1086104
0000c0 f4 33 84 3e ae 1d 84 be 9b 81 b1 3e 59 88 f2 be
       0.25820887 -0.25803894 0.34669194 -0.4736965
0000d0 79 5c 04 be b6 b1 b3 be 12 6e d9 3d 79 6d 84 be
       -0.129259 -0.3509652 0.10616697 -0.2586477

pipeline_encoder.node_homogenizer.op_hyperparams_embedder.encoders.lgbm.0.bias f4 [8]
000000 3c ce a5 bc 47 cd d0 be 0b e1 0b be f1 4d 52 3e
       -0.020239942 -0.40781614 -0.13660066 0.20537545
000010 49 bf 3d be 28 d0 95 3c 78 2d 20 bd a1 04 1d 3d
       -0.18530001 0.018287733 -0.039105862 0.038334493

pipeline_encoder.node_homogenizer.op_hyperparams_embedder.encoders.lgbm.3.weight f4 [8, 8]
000000 4d 1d 9b be 14 db 9c 3e 73 33 22 3e 0b 01 94 3c
       -0.30295792 0.30635893 0.15839939 0.018066904
000010 73 27 f8 3d 04 b7 92 be 1b 1f 72 bd f8 1d 03 be
       0.12116899 -0.28655255 -0.059111696 -0.12804401
000020 db 75 0d 3d ae d8 e3 3d 3e 97 af bd 16 e7 21 3f
       0.034536224 0.11125313 -0.08573769 0.63243234
000030 4c 93 a4 bb e4 25 d1 3c f0 f8 b1 3c 6c 6a 41 bd
       -0.005022442 0.025530763 0.021725148 -0.047220632
000040 3f 46 5e be fa 7a 15 bf 90 5f bd 3b fd 6b 44 3e
       -0.21706484 -0.5839077 0.005779214 0.1918182
000050 fd c0 75 bd b0 a9 27 3e 7d 46 60 be 45 86 41 3d
       -0.0599985 0.16373324 -0.21901889 0.04724719
000060 20 0a 9a 3c 3a d9 de 3e 03 be 9c bd 21 c9 c9 3e
       0.018803656 0.43525106 -0.07653429 0.39411262
000070 bd 85 34 be d3 71 22 bf 17 3b a2 be 03 51 0b be
       -0.17629142 -0.6345493 -0.31685707 -0.13605122
000080 c8 86 6a 3e 29 5e 8d bd 7b 28 1c 3e 41 00 0e bc
       0.22902977 -0.06902725 0.15249817 -0.008667053
000090 bc ec 9b 3e 75 e4 1c 3e 79 2a 30 3e 9b 4a ec 3d
       0.30454051 0.15321524 0.17203702 0.11537667
0000a0 31 d8 7c be 7b 73 18 be fc be 28 be 16 ff 0b 3f
       -0.24691845 -0.14887802 -0.16479105 0.54686105
0000b0 6d 9d 45 3e c3 3d 17 be ea 5e 91 bc e8 63 85 3e
       0.19298334 -0.14769654 -0.017745454 0.26052785
0000c0 c8 b0 93 be 11 40 a8 be 08 30 a6 3c 09 de b2 3e
       -0.2884581 -0.3286138 0.020286575 0.34935024
0000d0 7b 22 5f be 9c a7 e0 3e 09 bf b7 3a 33 72 f2 3e
       -0.21790497 0.43877876 0.0014018725 0.47352752
0000e0 11 41 19 3f bf d5 c0 3d cf ae e2 3c 0e 0c c5 be
       0.5986491 0.09415769 0.027671246 -0.3848576
0000f0 5a 6d 0a be a9 9d 42 bd 2f b7 5e 3e 31 39 fa bc
       -0.13518277 -0.047513638 0.21749566 -0.03054485

pipeline_encoder.node_homogenizer.op_hyperparams_embedder.encoders.lgbm.3.bias f4 [8]
000000 fd 8c 20 3e 3d ae 2c 3e e3 cf 23 3e 1f 1a ba bd
       0.15678783 0.16863342 0.15997271 -0.090870135
000010 94 c3 21 bd 74 f7 79 be 50 bd aa bd 7c df 7b 3d
       -0.03949316 -0.24410802 -0.0833689 0.06149243

pipeline_encoder.node_homogenizer.op_hyperparams_embedder.encoders.logit.0.weight f4 [8, 1]
000000 4a f5 98 c0 e8 f3 28 bf 85 d9 a6 3e b8 72 7c bf
       -4.7799425 -0.6599717 0.3258783 -0.98612547
000010 06 a0 0a c0 4c 58 55 3e 9c e9 4b bf 70 8e 37 bf
       -2.166017 0.20834464 -0.79653335 -0.7170172

pipeline_encoder.node_homogenizer.op_hyperparams_embedder.encoders.logit.0.bias f4 [8]
000000 14 64 25 3e 9a af 18 3e d6 e8 7d bc 38 68 6b bf
       0.16151458 0.14910737 -0.015497407 -0.919559
000010 c7 5e 13 3e 70 22 e5 bb 24 a3 3c bf f8 50 23 be
       0.14391623 -0.0069926307 -0.7368643 -0.15948856

pipeline_encoder.node_homogenizer.op_hyperparams_embedder.encoders.logit.3.weight f4 [8, 8]
000000 f9 66 9f 3f 89 2c 1e be d9 53 d5 3d 87 74 80 3d
       1.24533 -0.15446676 0.10416383 0.06272226
000010 44 ee 54 3d ea f9 01 3e 9e 78 70 3e 51 4f ac be
       0.05198504 0.12692991 0.23483512 -0.33654264
000020 bc ef ce 3e e9 a8 01 3f 06 a4 b6 bd 10 8e 8a be
       0.40417278 0.5064836 -0.08918004 -0.2706151
000030 09 b0 4f 3f ea eb 8f bd 93 72 5f be 8b 14 97 3e
       0.81127983 -0.07027419 -0.2182105 0.2950786
000040 ae 3b 4e bf 12 e0 a6 be 68 0f ee 3c 72 e6 56 3e
       -0.80559814 -0.32592827 0.02906008 0.20986345
000050 cd c9 1d bf 0d 06 99 3d 9c ee 82 3e d7 49 3a be
       -0.6163605 0.07471857 0.2557267 -0.1819223
000060 5d 7b 53 be 62 70 cb be 88 1b c7 3d fe f8 82 be
       -0.20652528 -0.3973418 0.09722048 -0.2558059
000070 43 4f 01 bf 3a 3a 45 3e 3d ab 80 bd 83 47 39 3e
       -0.5051157 0.19260493 -0.06282661 0.18093686
000080 6b 50 a9 bf d9 10 c3 be 4e 34 3a 3d 6b fa f4 3d
       -1.3227667 -0.3809879 0.045460038 0.11961826
000090 8d 87 8b be 37 49 13 3e 0c 24 92 3e 27 9a a7 be
       -0.27251855 0.14383398 0.28543127 -0.32734796
0000a0 7d e4 a2 3f e0 44 1d be 54 dd 22 bd 30 bb c8 3d
       1.2725979 -0.15358305 -0.039761856 0.09801328
0000b0 21 8a cf be 10 27 d1 3c 6f 5e 21 3d 55 dd 00 bd
       -0.40535071 0.025531322 0.0393967 -0.03146108
0000c0 96 39 6b be c3 6c 9a 3c 5e ca 16 3d 98 ec 9e be
       -0.22971186 0.01885069 0.036814086 -0.31039882
0000d0 a6 69 a0 be 16 0f 31 3d c8 cf 61 3e 02 58 b0 be
       -0.31330603 0.043227278 0.22051919 -0.34442145
0000e0 58 83 50 bf 15 ce d9 bc 6e 13 6d bd 81 68 6b be
       -0.81450415 -0.026587525 -0.057879858 -0.22989084
0000f0 da b4 eb 3c c1 8f ef bc 00 0b 41 be 7a e2 83 3e
       0.02877276 -0.029243352 -0.18851852 0.25758725

pipeline_encoder.node_homogenizer.op_hyperparams_embedder.encoders.logit.3.bias f4 [8]
000000 db 33 2f be 6c 41 23 bd 45 36 05 bd 43 55 30 bd
       -0.17109625 -0.039857313 -0.03252246 -0.043050062
000010 db ac a1 3e 2f 0d f2 bd 0f ad e9 bd 97 75 ed 3d
       0.3157719 -0.11818921 -0.114099614 0.11594694

pipeline_encoder.node_homogenizer.op_hyperparams_embedder.encoders.pca.0.weight f4 [8, 1]
000000 20 93 71 bf f3 70 08 3f 94 f3 2e bf d4 1b cf be
       -0.9436512 0.53297347 -0.6834042 -0.4045092
000010 98 a6 5e be 68 7a 69 bf f6 4c 36 bf d8 7f 31 bf
       -0.21743238 -0.912024 -0.71211183 -0.693357

pipeline_encoder.node_homogenizer.op_hyperparams_embedder.encoders.pca.0.bias f4 [8]
000000 fb 7d 27 3e eb 0e b3 be 14 de c2 3e 46 3e 00 bf
       0.16356651 -0.3497232 0.38060057 -0.5009502
000010 e8 3c ac be 78 3e 06 bf 06 f3 92 3e c0 c7 07 be
       -0.33640218 -0.5243907 0.28701037 -0.13259792

pipeline_encoder.node_homogenizer.op_hyperparams_embedder.encoders.pca.3.weight f4 [8, 8]
000000 bd 6a 8c 3e a4 ef 03 bf 72 f3 76 3d 52 b9 ad bd
       0.27425185 -0.5153754 0.06029076 -0.08482613
000010 b9 76 5e be a1 90 88 be 46 dc ff 3d d7 be fd 3c
       -0.21724977 -0.26672843 0.12493186 0.030974789
000020 09 09 bf be 96 2e 97 bd c8 82 01 3d e5 9f 8e bd
       -0.3731158 -0.073819324 0.031618863 -0.06964091
000030 8e c8 8c be df 0c 2e 3e 6c af be 3d 7b 4e 83 be
       -0.2749676 0.16997097 0.09310803 -0.25645813
000040 02 5d 58 3f ab 87 cc be af d2 8d 3d 1e bd b1 be
       0.8451692 -0.39947256 0.0692495 -0.34714597
000050 a2 84 8d 3e ea fa 93 3e 27 c3 35 3e 0f 6d 87 be
       0.27640253 0.2890237 0.17750226 -0.26450393
000060 60 b4 6c be 63 02 8c 3e 87 ab 23 be a9 c3 be bd
       -0.23115683 0.2734557 -0.15983401 -0.09314663
000070 43 02 98 3e 44 ff 34 3e 6d 3b 4f be d4 db a3 3e
       0.29689226 0.17675501 -0.20237513 0.32003653
000080 7f 3b 08 bf 6a 31 07 3f 2f 82 45 be d3 46 e9 3c
       -0.53215784 0.52809775 -0.19287942 0.028476154
000090 76 6d 69 be c7 91 f2 3d ed 49 98 be 8e fd 7f 3e
       -0.22795662 0.11844211 -0.297439 0.24999067
0000a0 e8 c2 ab 3e 3b d9 53 be b4 7a 9c 3d b5 c6 85 be
       0.3354714 -0.20688336 0.07640591 -0.26128164
0000b0 cb 16 a2 be 50 eb bc 3d f7 e4 f3 3d a7 a0 f5 3d
       -0.31658015 0.0922457 0.11908906 0.11993533
0000c0 d9 61 ac 3f 58 fb 6b be f4 61 57 3e 8f 4b 11 bd
       1.3467361 -0.23045099 0.2103346 -0.03547245
0000d0 3f 5e 12 3e 7d af 9a be da db dd 3e 74 c8 64 be
       0.14293765 -0.30212012 0.43331796 -0.22342092
0000e0 ad 03 47 3e 7a d3 8f 3c 9e 62 b1 bc 4e 44 12 be
       0.19434996 0.017556895 -0.02165347 -0.14283869
0000f0 f9 33 8a 3d 73 88 fb 3b 8b 07 f2 bc fd b3 90 be
       0.06748194 0.007676178 -0.029544612 -0.2826232

pipeline_encoder.node_homogenizer.op_hyperparams_embedder.encoders.pca.3.bias f4 [8]
000000 5a ba 9b bc 56 5f 10 3e a5 5a f4 3c ab d8 d0 bc
       -0.019009758 0.14098868 0.029828379 -0.02549394
000010 c6 63 06 3c 95 cf bf bd b7 a6 32 3d cb 6f d8 bd
       0.008202499 -0.09365765 0.043616023 -0.10568198

pipeline_encoder.node_homogenizer.op_hyperparams_embedder.encoders.poly_features.0.weight f4 [8, 2]
000000 f0 86 93 3e a7 bc 80 be 0c 10 8f 3e d1 07 6b 3e
       0.28813887 -0.2514393 0.2794193 0.229522
000010 11 1e ce 3d a5 11 dd be c3 6b ad bb ed fe 90 be
       0.100643285 -0.43177524 -0.005292387 -0.28319493
000020 9f ec 50 bd 47 3b 3f 3e b8 b3 37 3e 10 db 01 3e
       -0.05100691 0.18674956 0.17939651 0.12681222
000030 6b b1 bc be c2 a2 1a be 54 21 d8 bd 90 ea dd be
       -0.3685411 -0.1510115 -0.10553232 -0.4334302

pipeline_encoder.node_homogenizer.op_hyperparams_embedder.encoders.poly_features.0.bias f4 [8]
000000 67 17 ee bd 08 84 83 be ec 36 31 bf 12 8a 11 bf
       -0.116255574 -0.2568667 -0.6922443 -0.56851304
000010 d0 b6 97 bc 05 72 17 be eb af 91 3e fd 30 82 be
       -0.018519789 -0.14789589 0.28454527 -0.25428

pipeline_encoder.node_homogenizer.op_hyperparams_embedder.encoders.poly_features.3.weight f4 [8, 8]
000000 5a 66 de bc 3f 6a 7b 3d 15 14 93 bc 79 7d 43 3d
       -0.027148414 0.06138062 -0.017953912 0.047727082
000010 15 9f ca bd be 16 48 3e f8 4c 55 be 3c a2 90 be
       -0.09893624 0.19539925 -0.20830142 -0.28248775
000020 f5 4c 97 3c 8e f8 75 3d 8b b5 83 3e 9d 27 99 be
       0.018469313 0.060051493 0.25724444 -0.29913035
000030 da c5 8d 3e 51 d0 8c 3e 06 36 b1 bd df b7 96 bc
       0.2769001 0.27502683 -0.08652882 -0.018398223
000040 4f 5d 3b 3d 45 16 24 be ed cb ae be c9 7d 91 3e
       0.045743283 -0.1602412 -0.34139958 0.2841628
000050 f0 75 5c bd ad ed 52 be 95 ab f2 bd ae 21 63 be
       -0.05382341 -0.20598479 -0.11849133 -0.22180817
000060 37 0c 91 be fa 02 38 3d a0 5b 38 3e 28 33 63 3e
       -0.28329632 0.044924714 0.18003702 0.22187483
000070 eb 24 f8 be 29 78 b0 3d ca 98 ac 3d 5a dd 0f be
       -0.48465666 0.08616669 0.0842758 -0.14049283
000080 8c 7c 74 be 7d 44 15 be 35 11 b3 be b3 8f a3 be
       -0.23875636 -0.14576907 -0.34974065 -0.3194557
000090 84 f3 7e bd 2a a2 f7 bd 33 bb f9 bc bd e1 11 be
       -0.062243953 -0.12091477 -0.030484771 -0.14246269
0000a0 38 c6 ab bc fd 92 17 bd 2a 92 10 3e de 06 89 3e
       -0.020968542 -0.037005413 0.14118257 0.26763052
0000b0 e5 01 27 3e 0c 5e 2c 3e d0 43 ce bd 53 50 59 3e
       0.16309316 0.16832751 -0.10071528 0.21222048
0000c0 2e d9 13 3e 66 47 45 be ba 4b 1d 3e 7c fe 4e 3d
       0.14438316 -0.19265518 0.15360919 0.050535664
0000d0 6f 93 5a be d3 e4 92 be d6 46 6e bd 7d a8 3b 3e
       -0.21345304 -0.28690204 -0.058173023 0.18325992
0000e0 c0 4a b3 3e 85 fe 4b be f2 4a b0 be f8 68 cb bc
       0.35017967 -0.1992131 -0.3443218 -0.024830326
0000f0 57 33 41 bc 5c e5 9f bd 07 43 c2 3d 66 52 93 bc
       -0.0117920255 -0.07807419 0.09485441 -0.017983627

pipeline_encoder.node_homogenizer.op_hyperparams_embedder.encoders.poly_features.3.bias f4 [8]
000000 43 46 59 bc 20 a7 36 be 35 6b 07 3d 93 88 d3 be
       -0.013261381 -0.1783719 0.033061225 -0.41315135
000010 d5 26 b9 3d 36 af 3f 3e 84 0f df bd 00 38 9d bc
       0.0904061 0.18719181 -0.10891631 -0.019191742

pipeline_encoder.node_homogenizer.op_hyperparams_embedder.encoders.resample.0.weight f4 [8, 3]
000000 80 9b ec be be 31 10 bd 54 4d 0e bf 57 7e 89 3d
       -0.46212387 -0.035203688 -0.55586743 0.067135505
000010 fd 30 8f 3e 7e 49 ad be c6 2b f3 3d 68 a4 74 be
       0.27967063 -0.33845133 0.118735835 -0.23890841
000020 b4 01 e9 3e 9d a9 a7 be b6 ae 90 3e ca f0 96 3b
       0.45509112 -0.32746592 0.28258294 0.004606341
000030 60 3a 33 3d a6 28 e8 3e 53 7a 7f be 89 06 0f 3f
       0.043756843 0.45343512 -0.24949007 0.55869347
000040 17 6b b5 be 6f eb 3b be dc 1c 70 be db f9 0c be
       -0.35433266 -0.1835153 -0.23448509 -0.13767187
000050 f4 77 00 bf 8c 0a 04 bf 90 60 a6 be c9 87 10 3e
       -0.50183034 -0.51578593 -0.32495546 0.14114298

pipeline_encoder.node_homogenizer.op_hyperparams_embedder.encoders.resample.0.bias f4 [8]
000000 60 e3 97 bc 7b b3 51 bd d8 bf a1 be 33 55 de bc
       -0.018541038 -0.051196557 -0.31591678 -0.027140236
000010 0c 74 06 bf cf b2 92 be 65 35 eb 3e 28 0d 13 bf
       -0.52520823 -0.28652045 0.45939174 -0.5744195

pipeline_encoder.node_homogenizer.op_hyperparams_embedder.encoders.resample.3.weight f4 [8, 8]
000000 e2 e2 10 be 69 41 2a be bb f8 3a 3e 8d c6 82 3e
       -0.14149049 -0.16626514 0.18258946 0.25542107
000010 29 fc b2 be dd b8 df be 18 c7 25 be 89 f4 79 3e
       -0.34958008 -0.43695727 -0.1618923 0.24409689
000020 fa a7 0f bc dc b5 99 be 31 ae 67 3d c1 c3 9a bd
       -0.008768076 -0.3002156 0.056562606 -0.07556868
000030 1a dd 00 be 21 bb 14 3e 48 cf 98 be 9b cc f1 bc
       -0.12584344 0.14524509 -0.29845643 -0.029516509
000040 5f 41 97 be 92 a5 47 3e c4 13 aa 3d e0 0f 6e 3e
       -0.29542062 0.19496754 0.08304551 0.23248243
000050 11 cf 07 3e 96 45 ef bd 29 01 93 bd 0d 17 1a be
       0.13262583 -0.11683194 -0.07177956 -0.15047856
000060 a8 2e 2a 3e a8 93 23 3e e1 e5 fa bc e4 17 11 3e
       0.1661936 0.15974295 -0.030627193 0.1416927
000070 78 72 0f be a1 53 f0 be 27 f1 86 3e 81 8a 89 be
       -0.1400851 -0.46938804 0.2635586 -0.26863483
000080 5e 30 7b 3e 39 7c d5 3d 1d 5e c2 3d 58 70 f3 3d
       0.2453017 0.10424084 0.09490607 0.11886662
000090 c6 f7 0c 3e 5d 14 46 3e 32 b3 5c bd 10 46 6b 3d
       0.13766393 0.19343705 -0.05388183 0.057439864
0000a0 4c b0 87 3e 51 e8 79 3d 49 24 05 bf 0b 8d 5b be
       0.2650169 0.06101257 -0.5200849 -0.21440522
0000b0 7c 52 bd 3c 60 a8 5c 3d f0 8a 02 3d dc f4 7f be
       0.02311062 0.053871512 0.031870782 -0.2499575
0000c0 2b 0a e9 bd 9f 73 f3 3e a3 a9 ff be 7d 8e 50 3e
       -0.113788925 0.4754915 -0.4993411 0.20366855
0000d0 d4 9b 70 be 3b 9d 60 3e aa 36 07 3e d0 1b 29 be
       -0.23496944 0.21934979 0.13204446 -0.16514516
0000e0 68 80 b4 be 28 63 6d 3e 84 b4 cd be 6b 21 46 3e
       -0.35254216 0.23182356 -0.40176785 0.19348685
0000f0 b1 cd 9f 3e 2b 1d 78 3e 31 3c b7 be f5 a0 aa 3e
       0.31211618 0.24229877 -0.3578811 0.33325925

pipeline_encoder.node_homogenizer.op_hyperparams_embedder.encoders.resample.3.bias f4 [8]
000000 26 54 52 3e 3c e1 ec bd ea 09 c3 bd 55 4f ba 3e
       0.20539913 -0.115663975 -0.09523375 0.3638865
000010 ef 93 13 bd bf 58 69 bd ad 27 26 be f8 7a c6 3e
       -0.036029752 -0.0569694 -0.16226073 0.38765693

pipeline_encoder.node_homogenizer.op_hyperparams_embedder.encoders.rf.0.weight f4 [8, 5]
000000 bc 51 fe 39 2b 68 d1 be 9f 28 f7 3b ab b9 8b 3d
       0.00048507552 -0.40899786 0.007542684 0.06822523
000010 c3 f0 17 be c9 0e c4 bc 25 b9 19 bc 63 2a 2b 3c
       -0.14837937 -0.023932831 -0.009382521 0.0104471175
000020 03 ff e0 3d 4b 0d 05 bf 68 f6 89 be 83 b9 fe 3d
       0.109861396 -0.5197341 -0.26945806 0.12437727
000030 4a 0e b6 bd 43 0a 1b bf 76 44 39 3e 5a e1 00 3e
       -0.08889444 -0.60562533 0.18092522 0.12585965
000040 f8 45 8f 3d cd 00 1a be 45 30 e4 bf c7 37 24 3e
       0.06995767 -0.15039368 -1.7827231 0.16036902
000050 1a 1c e1 bd 2f 8a ca be bc ad 8f ba 24 44 b7 bc
       -0.10991688 -0.3955855 -0.0010961811 -0.02237136
000060 c6 b2 b4 3e 7d c4 5d 3e 88 29 2c bf 93 d0 7c bc
       0.35292643 0.21656986 -0.6725087 -0.015430587
000070 49 85 a9 3c 6b 4a 1f 3e dc 69 4a bd e2 28 b4 be
       0.020693438 0.15555732 -0.04941736 -0.3518744
000080 62 e5 d7 bc e7 68 60 3e 4e 1e 15 be 66 26 59 bd
       -0.026354495 0.21915017 -0.14562342 -0.053015135
000090 8b c2 1f 3e a8 e4 30 3c e7 ba 10 bf f8 40 2c bf
       0.15601556 0.010796703 -0.5653519 -0.67286634

pipeline_encoder.node_homogenizer.op_hyperparams_embedder.encoders.rf.0.bias f4 [8]
000000 8a cb 08 3f 84 34 59 3e 61 1c 9e bd f3 06 33 3e
       0.53435576 0.2121144 -0.077202566 0.1748312
000010 08 b5 98 3c ce 38 8d 3e 1b 7a e6 3e 8d 75 c1 3e
       0.01864101 0.275824 0.45015034 0.37784997

pipeline_encoder.node_homogenizer.op_hyperparams_embedder.encoders.rf.3.weight f4 [8, 8]
000000 40 10 4f be b1 ed 48 be ad 20 35 bd 0b db ca 3c
       -0.20221043 -0.19621922 -0.044220615 0.024762651
000010 e5 85 14 bf cf 30 c0 bd c6 c4 28 be 51 7d e9 be
       -0.58016807 -0.093843095 -0.16481313 -0.4560342
000020 15 0c d3 3d 1e c0 24 3d 8a d1 3c be bc 8e f3 be
       0.10305039 0.04022228 -0.18439308 -0.47569835
000030 a3 d3 63 be 0b 18 09 3e c8 b0 63 3e 25 e5 24 bf
       -0.22248702 0.13388078 0.22235405 -0.64412147
000040 9b 87 cc 3d d1 9c 36 3e b5 96 34 3e f2 88 22 bf
       0.09986802 0.17833258 0.17635615 -0.6349021
000050 03 08 ff 3d ba 7d d3 bd d1 50 42 3e 7d 43 9b 3b
       0.124527 -0.10326715 0.18976142 0.00473827
000060 9a 67 91 bd 36 4e 23 be d4 86 80 3f 3d 6d 57 3f
       -0.070998386 -0.15947804 1.0041146 0.8415106
000070 bf 31 15 be a5 da a0 bd f9 d5 17 be 8c f4 4c bd
       -0.14569758 -0.07854203 -0.14827718 -0.050037906
000080 e3 b0 c2 3c a3 fb 6c 3d e6 c6 25 bf 77 cc 81 3c
       0.023765987 0.057857167 -0.6475662 0.015844567
000090 d3 0e 38 3e d8 7a 48 3d 76 9a e1 bc fe e4 5c 3e
       0.17974405 0.048945278 -0.027539473 0.21571729
0000a0 84 08 1c be 2e d6 d4 be 0f e2 f7 3e 0f a8 25 3d
       -0.15237623 -0.41569656 0.48414657 0.040443476
0000b0 aa 18 0a be 53 79 03 be 18 9b 2f be 95 47 0a be
       -0.13485971 -0.1283925 -0.17149007 -0.13503869
0000c0 20 a2 1d be 4e 24 da bd 2b 79 7a 3e 1f 56 2a be
       -0.15393877 -0.10651456 0.24460284 -0.16634415
0000d0 e6 d6 b2 bd f5 5f 66 be bb 36 08 be 35 0b 82 bd
       -0.08732395 -0.22497542 -0.13302128 -0.06349794
0000e0 4f 8b 09 3f 38 4e a3 3e cf 21 db 3a 7a e7 2e bd
       0.53728193 0.31895614 0.001671845 -0.042701222
0000f0 00 ea 5d 3f aa d8 01 3f 2d c5 bb 3e 42 cb 52 3e
       0.8668518 0.5072123 0.3667387 0.20585349

pipeline_encoder.node_homogenizer.op_hyperparams_embedder.encoders.rf.3.bias f4 [8]
000000 b1 3a 5c 3d f1 97 29 3d a6 9d 81 bd 43 47 a3 3d
       0.05376691 0.04140467 -0.06328897 0.079725765
000010 b1 95 2e bd fc a9 46 3d 5d f3 36 3e 63 b8 d7 bd
       -0.042623226 0.048501953 0.17866273 -0.10533216

pipeline_encoder.node_homogenizer.op_hyperparams_embedder.learnable.bernb f4 [1, 8]
000000 84 01 27 bc a0 fc 26 3e cb f4 a0 3f 17 ae 72 3f
       -0.010193232 0.16307306 1.2574705 0.9479689
000010 91 9f e9 3e a1 54 8a be c2 f2 08 3f f4 bc 5d bd
       0.45629552 -0.27017692 0.5349542 -0.054135278

pipeline_encoder.node_homogenizer.op_hyperparams_embedder.learnable.dataset f4 [1, 8]
000000 25 15 2d 3f 05 d7 c9 3e 6a b7 70 3e 7d 4a 83 3e
       0.6761039 0.3942186 0.23507467 0.25642768
000010 1d 9a 2a 3f 7d 54 45 3f 1e ad b0 be 9f 52 25 3f
       0.6664141 0.77082044 -0.34507078 0.64579195

pipeline_encoder.node_homogenizer.op_hyperparams_embedder.learnable.mlp f4 [1, 8]
000000 0b f6 34 3d 8f ba 7f 3d 94 ef 91 3f b0 48 18 3f
       0.044179957 0.062433776 1.1401238 0.5948591
000010 e1 00 29 3f 14 77 02 3f 3a 94 1e be 9c 88 74 3f
       0.66016966 0.5096295 -0.15486231 0.9552095

pipeline_encoder.node_homogenizer.op_hyperparams_embedder.learnable.normalization f4 [1, 8]
000000 6d fb 22 3e 43 f4 6d 3f 01 c4 c5 3e f8 04 be 3d
       0.15916224 0.9295084 0.38626102 0.092782915
000010 97 17 89 3f 8a 1c 5e 3f f8 34 fa 3e 31 07 db 3e
       1.0710324 0.867623 0.48868537 0.42778924

pipeline_encoder.node_homogenizer.op_hyperparams_embedder.learnable.qda f4 [1, 8]
000000 0e 3d 2a bf 60 c3 92 3f 1b 40 00 3f e0 81 57 3f
       -0.6649941 1.1465874 0.5009782 0.8418255
000010 76 b1 53 3e cd 4c 65 3f 55 f7 47 3e ab 2e 75 bd
       0.20673165 0.89570314 0.19527943 -0.05985896

pipeline_encoder.node_homogenizer.op_hyperparams_embedder.learnable.scaling f4 [1, 8]
000000 38 62 be 3e c7 ce 2d 3f 10 f4 9c be c4 89 c4 3d
       0.3718431 0.6789364 -0.30654955 0.09596589
000010 cb c1 89 3f 56 0c 2b 3f 93 f6 0e 3f 70 e5 e7 3e
       1.0762266 0.668157 0.5584499 0.45292234

pipeline_encoder.node_homogenizer.op_name_embedder.embedding.weight f4 [100, 2]
000000 14 91 de bf 0d 40 95 bd 0b 69 17 3f 84 14 0c c0
       -1.7388024 -0.07287607 0.5914466 -2.1887522
000010 00 e7 da 3f 9d 83 47 bf 9b 3d 8b be be 50 fd bd
       1.7101746 -0.779352 -0.2719544 -0.12368916
000020 1c 19 93 3e 28 a6 ef bf 0b 78 4c 3d f7 65 77 bd
       0.28730094 -1.8722582 0.04991917 -0.060399976
000030 12 c0 d5 3e f0 24 88 3f 26 65 06 3e 58 9f 5c bf
       0.417481 1.0636272 0.13124523 -0.8618064
000040 eb d0 90 bf 06 d7 10 bf 1f 28 f6 be 87 b0 a0 3f
       -1.1313757 -0.565781 -0.48077485 1.2553872
000050 81 32 b7 bf 20 68 90 bf 1a 9c 9d bf 24 75 04 3f
       -1.4312288 -1.1281776 -1.2313263 0.5174124
000060 54 d6 e1 be 23 e0 da 3f d8 e2 f8 bf e5 93 95 3f
       -0.44108832 1.7099651 -1.9444227 1.1685759
000070 91 c9 33 bf f0 79 5f bd 1c 41 78 3f 02 a9 b7 bf
       -0.7022944 -0.054559648 0.9697435 -1.4348452
000080 8c 8b c0 be a6 9c 78 bf 42 cc 84 3d 0c fd e7 3e
       -0.37606466 -0.97114027 0.064842716 0.45310247
000090 e4 0f 89 be 0f 39 36 be fe 96 4e 3e 0c 84 ba be
       -0.26769936 -0.17795204 0.20174786 -0.3642887
0000a0 45 5d 22 3e 51 09 c8 3f 98 8c d2 be cc 4c b7 be
       0.15855892 1.5627843 -0.4112289 -0.3580078
0000b0 bb ac 7b 3f 57 fb 95 bf 75 f2 52 bf 87 b2 e5 3f
       0.9831044 -1.1717328 -0.8240121 1.7945107
0000c0 d8 a8 38 bf 62 79 d1 3e 3b 56 c9 3f 43 0f 8c 3d
       -0.72132635 0.4091292 1.572944 0.068388484
0000d0 32 cf 95 3f 55 0c 48 3f fa b0 24 3f 0b d1 52 3d
       1.1703856 0.7814382 0.64332545 0.05146889
0000e0 e6 59 61 3f 63 91 c8 bf a3 ae b6 bd ac fd b4 bc
       0.880278 -1.5669369 -0.08920028 -0.022093616
0000f0 41 f9 84 be 82 96 1f 3f 43 aa bb 3f d4 95 4f 3e
       -0.25971416 0.6233903 1.4661335 0.20271999
000100 d7 6c 2e bf ef 17 dc bf bb ad 64 3f a7 b4 c8 bd
       -0.68134826 -1.7194804 0.8932759 -0.09800082
000110 62 a4 b9 be 87 d4 1e 3e 35 e0 2e be d0 6e 18 bf
       -0.36258227 0.1551076 -0.17077716 -0.59544086
000120 17 e9 8a 3f 92 4b 36 3f 6e 30 92 3e a4 d7 b8 bf
       1.0852383 0.7120906 0.28552574 -1.4440808
000130 7a 0f 17 3d bf 88 20 bf 4f 9c bb 3e 42 56 bd 3f
       0.036879994 -0.6270866 0.36642691 1.4791949
000140 11 45 0d bf 11 db ac be b9 36 30 bb 93 94 05 3f
       -0.5518351 -0.33760884 -0.0026888086 0.5217983
000150 a9 17 4d 3f 26 49 65 be 62 5c a5 bd 33 f0 28 3e
       0.8011423 -0.22391185 -0.08074261 0.16497879
000160 08 63 76 3e 1f a1 52 be d5 c1 1e 3c 01 ca 3d 3f
       0.24061215 -0.20569275 0.009689768 0.7413636
000170 46 a4 a8 bf c6 17 4a bf 63 79 4f 3e a3 b7 41 c0
       -1.3175132 -0.78942525 0.20261149 -3.0268333
000180 b0 5b 64 bf 67 7b 9e bd 5c 34 12 3e f2 3d f9 bf
       -0.89202404 -0.07738381 0.14277786 -1.9472029
000190 95 0a 02 bf 34 5f 97 bf 29 c6 a8 bf f2 e5 2b bf
       -0.50797397 -1.1825929 -1.3185474 -0.67147744
0001a0 9e 0f 1f 3e 49 8f c8 3f b7 84 10 bf 4a 8f 13 3d
       0.15533301 1.5668727 -0.56452507 0.036025323
0001b0 92 5c 1e 3f 11 98 a9 3f 34 3c 84 bf 37 9a 95 bf
       0.6186 1.3249532 -1.0330873 -1.1687688
0001c0 46 50 40 be a7 65 89 3f 8b 4e 53 3f 60 9d 0c 40
       -0.18780622 1.0734147 0.8254172 2.1971054
0001d0 9f e5 ea 3f 56 f5 66 bd e7 89 15 3f a9 94 a5 3f
       1.8351325 -0.056386314 0.5841355 1.2935992
0001e0 01 9a 8e bf 20 8b 69 bf dd ac 85 3f 9a f5 ca 3f
       -1.1140748 -0.9122791 1.0443379 1.5856202
0001f0 2e 4d 9f 3d cf 0e 25 3f 18 e1 cd 3f 63 90 01 bf
       0.07778393 0.6447572 1.6084318 -0.5061094
000200 bb 87 89 3f 3e fe 94 be 5d 15 54 3f f8 e4 19 3f
       1.0744547 -0.2910022 0.828451 0.60115004
000210 8f a6 56 bf 45 2e 5f 3f 57 73 85 bf 23 13 52 3f
       -0.838479 0.87179977 -1.0425824 0.8206045
000220 84 45 00 40 40 79 a8 bf 1e b9 83 be 86 77 2d 3d
       2.004243 -1.3162003 -0.2572717 0.042350315
000230 99 08 a9 bf fe c2 99 3f 74 70 0e bf 33 e9 fc be
       -1.3205749 1.2012632 -0.5564034 -0.49396667
000240 cf 86 75 3e 23 0a 9b be 60 ea 6d bf a6 a7 e8 bf
       0.23977207 -0.3028117 -0.9293575 -1.8176162
000250 7b a3 50 bd d0 e1 44 be c3 8c 85 3e 1a 34 81 3d
       -0.050937157 -0.19226766 0.26083955 0.06308766
000260 82 60 41 bf 51 d7 41 bf 3c b0 f0 bc e4 cf 2f 3f
       -0.75537884 -0.7571917 -0.02938091 0.6867659
000270 f3 d9 ca be 3d e9 e4 3e 93 bf 89 3f ab f2 10 be
       -0.39619407 0.44709197 1.0761589 -0.1415507
000280 2a d2 86 be ab b4 15 bf 7f 2a 17 bf af e7 c5 bf
       -0.26332217 -0.584788 -0.5904922 -1.5461329
000290 b8 e7 c0 bf 22 93 15 3f f7 f9 8c be 61 83 17 3f
       -1.5070715 0.5842763 -0.27534458 0.59184843
0002a0 fe 13 36 3f 9a 64 36 bf 52 4f b4 3f a9 f5 ce be
       0.71124256 -0.71247256 1.4086707 -0.404218
0002b0 87 c7 84 3e f9 1a 1f bf d0 c8 8b be 62 a6 2a bd
       0.25933477 -0.6215053 -0.27301645 -0.04166258
0002c0 17 4c 5e bf c4 a3 b6 bf 6f 5c ad 3f 39 d6 e7 bf
       -0.86834854 -1.4268727 1.3543833 -1.811225
0002d0 7d 87 07 c0 dd d6 3a bf ef 9d a0 3f f2 a8 40 3f
       -2.1176445 -0.72984105 1.2548198 0.7525779
0002e0 6c 88 c4 be 0e 4f 3e bf 85 fc aa 3f 75 3b 82 3d
       -0.38385332 -0.7433938 1.3358313 0.06358997
0002f0 11 28 22 bf 1e 4f bd bf 8b 78 cb be 4c 6e 81 3f
       -0.63342386 -1.478977 -0.39740404 1.0111785
000300 2e ea 8c 3f f4 7f 16 c0 16 eb d0 3f 74 d8 63 bf
       1.1008966 -2.3515596 1.6321743 -0.89002156
000310 b1 34 95 3b 42 d1 25 be 32 98 81 bf d0 ad 83 3e
       0.0045534004 -0.16193107 -1.0124571 0.25718546

pipeline_encoder.gnn.gnn.0.lin_l.weight f4 [64, 64]
000000 66 87 6d 3d 92 f5 52 3d 9a 97 a6 bd d8 2f c0 3d
       0.057990454 0.051503725 -0.081343845 0.093841255
000010 ee 48 20 3e 87 88 d3 bc b2 98 14 3e d7 77 60 3e
       0.1565282 -0.025821937 0.14511374 0.21920715
000020 7b 95 07 bc 7c 4d 8d 3d 9a e8 1c bc 19 94 2d bd
       -0.008275385 0.068995446 -0.009576941 -0.042377565
000030 0e 59 87 3d 0a 46 a5 be 0e 53 9b 3d e5 a9 6c bc
       0.06608783 -0.32279998 0.07584201 -0.014444803
000040 e0 bf 6f be f2 49 11 bd 15 24 b0 bd 80 5a b7 3b
       -0.23413038 -0.03547091 -0.08600632 0.0055955052
000050 cf 22 a3 3e b0 83 52 be a4 27 39 3e c0 8d 83 3d
       0.31862494 -0.20558047 0.18081528 0.06423521
000060 7c 19 af bc 64 3b 1b 3d 8b df 98 3d 13 c3 f8 3d
       -0.021374457 0.037898436 0.074645124 0.121465825
000070 27 18 9e bd 89 45 47 3e 24 86 75 bd 90 3d ba bc
       -0.077194504 0.1946012 -0.05994238 -0.022734433
000080 20 bb 81 3b 38 13 b6 bd 74 02 07 be 21 c8 af 3e
       0.0039590746 -0.088903844 -0.1318453 0.34332374
000090 b0 5e 7d bd 81 ae 30 be 7f 38 8e 3a d0 f9 3f 3c
       -0.06185788 -0.17254068 0.0010850577 0.011717275
0000a0 f1 36 6b be d7 ca ba 3d 49 5d 91 3d 82 c5 2f be
       -0.22970177 0.0912072 0.07097871 -0.17165187
0000b0 5a 4c 8c be 53 69 83 bb 0d f3 c5 3d 47 9e af bc
       -0.27402002 -0.0040103584 0.09665499 -0.021437777
0000c0 49 b6 90 be e0 c8 a6 bb 31 3d 2a be d2 5b 16 bd
       -0.28264073 -0.005089864 -0.16624905 -0.03670866
0000d0 c5 ef 57 bd 79 b8 3c be fc fd 7b bd cd 7e 12 3e
       -0.052718896 -0.18429746 -0.061521515 0.14306183
0000e0 6a 5c 3d 3e 80 02 28 3c 86 48 98 be 32 bd 73 3d
       0.18492284 0.010254502 -0.2974283 0.059506603
0000f0 17 e8 8a 3e 42 9c 49 3d 02 e0 ab bd 50 c2 61 be
       0.27130195 0.049221285 -0.083923355 -0.2204678
000100 53 7d 9d bc ff 25 26 bd 65 26 2d 3e 26 93 c3 bd
       -0.019224798 -0.04056358 0.16909178 -0.09549551
000110 3d c0 9a 3c e6 5a 23 3d 17 09 3e 3e f9 a7 c3 3d
       0.018890494 0.03988161 0.18558155 0.095535226
000120 db 8a 70 bd eb 3a 32 be ae 6c 3d 3c cd 16 d1 3d
       -0.058726173 -0.17405288 0.011561556 0.10209427
000130 33 b5 d9 3d 40 7b 0a 3e 1e e9 5c 3e 95 5c 7b 3e
       0.10630264 0.13523579 0.21573302 0.24547036
000140 8d c1 66 3d c7 9a af be 94 63 1e be 36 4f 19 bb
       0.05633693 -0.34297773 -0.15467674 -0.002339316
000150 98 6e 6d bc d3 01 94 be 80 b3 41 3e e8 04 cc 3d
       -0.0144917 -0.28907642 0.1891613 0.09961873
000160 69 4e 9d 3d fe 73 dd bd d5 15 f9 bd a2 0f 53 3e
       0.07680971 -0.108131394 -0.12162367 0.20611432
000170 b4 62 ba 3d 1e aa f3 bc b7 f4 38 be 07 fd 7a 3e
       0.091008574 -0.029744204 -0.18062101 0.24510585
000180 c8 06 0f 3c 9f 2b 85 3e 3d 6d 6c 3e 91 07 61 bd
       0.008729644 0.26009843 0.23088546 -0.054938857
000190 b8 e7 9b 3d 0b 8e 1e 3e e8 36 ae 3c fc 76 81 bd
       0.07612556 0.15483873 0.021266416 -0.063215226
0001a0 68 4e 81 be 36 f6 76 be 9e 13 a3 3d 4f f5 60 be
       -0.25255132 -0.2411736 0.07962726 -0.21968578
0001b0 a9 fe da bb d1 b7 c9 bd c3 39 94 3d 38 17 42 be
       -0.00668319 -0.09849513 0.0723758 -0.1895417
0001c0 3d f0 67 be f9 af c3 bd a9 c8 81 be 49 ff 62 bd
       -0.22650237 -0.095550485 -0.25348404 -0.05541924
0001d0 81 63 57 3d 6f f4 73 3e 6f c5 99 be cb 9d 12 be
       0.05258513 0.23823713 -0.30033442 -0.14318006
0001e0 87 b9 a8 3c 15 1f a1 bd a9 03 89 be 13 b4 da 3d
       0.020596279 -0.078672566 -0.26760605 0.10678878
0001f0 2d db 6f bc ba e9 44 be d3 b4 33 3e 77 ea a6 3e
       -0.014639658 -0.19229785 0.17549448 0.32600757
000200 ce e0 a6 bd 40 6b 1f be 32 ca 90 bd 13 d9 0e 3e
       -0.08148347 -0.15568256 -0.07069816 0.13949995
000210 f0 bd 43 be 56 a1 ae 3d 3e d7 96 3d 4b f7 d0 bd
       -0.19115424 0.08526866 0.07365273 -0.102034174
000220 89 68 c9 3e 2e 84 24 bd 85 49 24 3e f2 9a 5e be
       0.39337566 -0.04016512 0.1604367 -0.21738794
000230 24 d9 6f be 91 00 78 be 0f 2f cd bd e8 80 45 3d
       -0.23422676 -0.24218966 -0.10018741 0.048218638
000240 70 f2 96 bd 20 fb 91 3e 80 4e 2e 3e c3 10 a6 be
       -0.0737046 0.28511906 0.17022133 -0.32434663
000250 3e e8 81 be 0a 63 cf 3d d7 1d 6c 3d 0b 0b c7 be
       -0.253725 0.10126312 0.057645645 -0.38875613
000260 c7 ba 83 3e 93 12 55 3d 00 d1 40 3d fa 52 64 be
       0.25728437 0.052019667 0.047074318 -0.22297278
000270 6b cc b0 bd db 1d 7f 3d af f4 8e bd 80 74 35 be
       -0.0863274 0.06228433 -0.069802634 -0.17720222
000280 5a 46 7a 3e b1 4a 2b be 0c 77 e8 bd d6 76 77 3d
       0.244409 -0.16727711 -0.113508314 0.060416065
000290 9f e3 af be 1b 16 97 3d e9 84 c2 3d 58 ec 61 3e
       -0.3435335 0.07377263 0.09498007 0.22062814
0002a0 02 1f 58 be 4d 16 b7 3d db 78 85 be f3 08 26 bd
       -0.21105579 0.089398004 -0.26068768 -0.04053588
0002b0 4e 8f 12 3e fa 9d be bd 96 51 2a 3d 49 08 48 be
       0.14312479 -0.093074754 0.041581713 -0.1953441
0002c0 e9 b4 83 3e 37 11 5e bd a2 ce 0e be 0f 31 18 be
       0.2572396 -0.054215636 -0.13946012 -0.14862464
0002d0 2c af 4d bd 1e b3 02 3d e9 ce 1b 3e 3a 2f 25 3d
       -0.050215885 0.0319091 0.15215649 0.040328242
0002e0 74 96 a1 bc a8 73 13 be 80 08 2a be da 85 4a 3d
       -0.019725062 -0.14399588 -0.16604805 0.049444057
0002f0 b9 60 8b bd 5a b2 9f 3d b4 67 a1 be 81 72 91 3c
       -0.06805558 0.0779769 -0.31524432 0.017754795
000300 66 64 96 bb dc 8a ef bc cc da 10 3e 90 02 5a bd
       -0.004589605 -0.029241018 0.14145964 -0.0532251
000310 9b 7b ab bc ea 47 6f bd 14 04 fa bd a5 46 7d 3e
       -0.020932963 -0.058418192 -0.12207809 0.2473398
000320 34 4a a7 3e 59 03 ea bc fa 3f 93 3e b4 60 2d bc
       0.326738 -0.02856605 0.28759748 -0.010582138
000330 1f 87 e4 3d 0a b5 ac be dd 91 85 3d 9b f8 82 bd
       0.11158585 -0.33731872 0.06521962 -0.06395074
000340 11 69 25 be 9b d8 71 be 90 85 46 bd 01 1e 42 3d
       -0.16153361 -0.23617785 -0.04846722 0.047391895
000350 bd 2d df 3e 96 25 df bd 3e cf a8 3e 8e 14 14 3d
       0.43589583 -0.10895841 0.32970613 0.036152415
000360 c2 67 a2 3e 98 c9 3e be bb a6 22 be e9 b3 fd 3d
       0.31719786 -0.1863159 -0.15883915 0.12387831
000370 57 47 77 3e 19 ff 80 3e ff 14 db be 2a bf 50 3e
       0.24148308 0.25194624 -0.42789456 0.20385423
000380 ca 1d 96 3c 89 b8 e8 bc cb e5 58 bd e7 37 75 3e
       0.018324751 -0.028408306 -0.052953523 0.23947106
000390 36 c9 da be 2b e2 51 be ba 4d 29 be 18 80 05 be
       -0.42731637 -0.20496432 -0.16533557 -0.13037145
0003a0 06 97 a2 3d b1 5c 8d bd e8 f9 b6 be b0 98 67 3d
       0.07938962 -0.06902445 -0.35737538 0.0565421
0003b0 99 1c 52 be 9f a4 3a be 21 61 e5 3d b2 5b 40 bd
       -0.20518722 -0.1822686 0.112001665 -0.046962447
0003c0 28 46 4c be bd da 92 3d 51 bb 00 be 8d bc a7 be
       -0.19948637 0.07170627 -0.12571456 -0.3276104
0003d0 11 47 f9 bd 4c 3a da bc 30 39 36 3c a5 ef 2f be
       -0.12171758 -0.026639126 0.011122033 -0.17181261
0003e0 79 6b f2 bd d0 a7 4b 3d ed 13 10 be 3d 2c 2f bd
       -0.11836905 0.049720585 -0.14070101 -0.0427668
0003f0 65 4c 28 bd 62 e8 9d be 5e 30 84 3e 65 2c 37 3e
       -0.04108848 -0.30841357 0.2581815 0.17888029

pipeline_encoder.gnn.gnn.0.lin_l.bias f4 [64]
000000 15 f7 11 bd 46 1d 8d 3d 47 26 b9 bc 3f 20 c9 bd
       -0.035636026 0.06890349 -0.02260126 -0.098206036
000010 ef 9f c1 bd a5 03 d9 ba 1b d1 71 bd ee 1c 19 bd
       -0.09454333 -0.0016556872 -0.05903731 -0.037381105
000020 2c 26 37 3d c4 27 17 bd c9 f8 cd 3c 37 4a bb 3d
       0.044714138 -0.036903158 0.025143044 0.09145015
000030 ea ad 4b bd b7 9d cb bd 79 21 a0 3c 29 cd 1f 3d
       -0.049726404 -0.09942191 0.019547211 0.039014015
000040 11 7e e8 3d b5 f4 b4 3b 55 38 85 3d cc e8 ed bd
       0.1135217 0.0055223354 0.06504885 -0.11616668
000050 43 96 f7 3d 1b 68 fa bc f0 48 f0 3d 0d 3b 33 3c
       0.12089207 -0.03056722 0.11732662 0.010939372
000060 89 97 ae 3b f8 4d bd bd 1f 8f 37 bc eb b5 ea 3d
       0.005328123 -0.09243387 -0.011203556 0.11460479
000070 83 4f d5 3d 19 93 c4 3d 62 6c b2 3d 67 a3 da 3d
       0.10415556 0.09598369 0.08712079 0.10675698
000080 93 21 1a bd b9 f8 b0 3b 40 e1 0e bd d4 3f 4f 3d
       -0.037629675 0.005400744 -0.034882784 0.05059798
000090 7a 34 b5 3d aa c3 bd 3d a8 f6 ce 3b 74 05 c5 bd
       0.088479 0.092658356 0.006316025 -0.09620181
0000a0 2e 41 c7 3d 2c 73 b5 bd 96 25 ff bc a1 be 1b 3c
       0.09729229 -0.08859858 -0.031145852 0.009505899
0000b0 84 54 aa 3d 62 5b 33 3d 71 17 fe 3d 61 a4 fe 3d
       0.08316901 0.04378832 0.12406815 0.124336965
0000c0 aa 75 64 3d 25 15 81 bd 9e 77 60 3c b3 13 11 bd
       0.055776276 -0.06302861 0.013700394 -0.035419177
0000d0 c6 5d a8 3d fc 69 0d 3d d1 08 dd bb e7 e1 43 3d
       0.08221011 0.034524903 -0.0067454358 0.04782286
0000e0 58 6e 82 bd b7 4f fe 3b f7 aa e4 3d b0 4f a3 3d
       -0.06368703 0.0077609676 0.111654215 0.079741836
0000f0 2d 7f de 3d 92 09 ef bd ff 2d fc 3d 85 71 d5 3d
       0.108641006 -0.11671747 0.123134606 0.10422043
