experiment_logs/fake_node_encoder_0/checkpoints/epoch=31-step=3136.ckpt (torch, 92637 bytes, 180 tensors)

autoencoders.node1.encoder.model.0.weight f4 [8, 3]
0.9025375 1.0731227 0.66779816 -0.04495567 -0.48126075 -0.37131578 -0.17472237 0.039744835
-0.20253539 -0.37306118 0.7813132 0.10051511 0.8816214 0.3143789 -0.00067156705 0.255269
0.6721826 0.3724981 0.15016134 0.7522362 0.054501057 -0.06928897 -0.4682023 0.41357934
00000000: b30c 673f 165c 893f d2f4 2a3f 7023 38bd
00000010: cf67 f6be 1a1d bebe 6cea 32be 7bcb 223d
00000020: 7065 4fbe e001 bfbe 2404 483f deda cd3d
00000030: f1b1 613f 45f6 a03e 1a0c 30ba 9eb2 823e
00000040: 2914 2c3f 12b8 be3e e5c3 193e 8d92 403f
00000050: 803c 5f3d 60e7 8dbd 36b8 efbe acc0 d33e

autoencoders.node1.encoder.model.0.bias f4 [8]
0.15278059 0.14388895 -0.32659283 -0.60352963 0.71467155 0.55668986 0.025013838 0.04173845
00000000: 8472 1c3e a057 133e 2d37 a7be eb80 1abf
00000010: b7f4 363f 3a83 0e3f d2e9 cc3c f0f5 2a3d

autoencoders.node1.encoder.model.2.weight f4 [8, 8]
-0.13292682 -0.050364584 -0.15766057 -0.044046193 0.31804612 -0.3398858 -0.16726698 0.30046162
-0.027004292 -0.07345402 0.11888245 -0.14932868 0.13681687 -0.22649229 -0.10629384 0.270587
-0.0007853916 -0.27963966 0.1958461 -0.21859166 -0.05557408 -0.03720409 -0.18844445 0.15823498
0.411133 0.19306043 0.20945019 -0.1068654 0.9470884 0.50069916 0.9631803 0.22003236
0.191232 -0.06999937 -0.092762485 0.5882677 0.73305327 0.6432029 0.6438142 0.31761482
0.45186245 0.05506873 -0.109326415 1.3071704 0.11088404 0.6518063 0.6796129 -0.13968156
-0.0016942918 0.21728346 -0.31323093 -0.27409267 -0.06470847 -0.35042095 0.048043072 -0.2503274
-0.31734106 -0.1436193 -0.18944818 -0.0018231571 0.23693207 -0.08609828 0.070385695 0.15970758
00000000: f81d 08be 184b 4ebd c671 21be c869 34bd
00000010: f1d6 a23e 8305 aebe 0948 2bbe 1bd6 993e
00000020: 1b38 ddbc 106f 96bd a478 f33d 9ee9 18be
00000030: b919 0c3e 98ed 67be 96b0 d9bd 618a 8a3e
00000040: bde2 4dba ee2c 8fbe e18b 483e 7ed6 5fbe
00000050: a6a1 63bd 5163 18bd 95f7 40be 5a08 223e
00000060: 0680 d23e a2b1 453e 1c7a 563e 3fdc dabd
00000070: 6374 723f d22d 003f fc92 763f 2a50 613e
00000080: 52d2 433e d45b 8fbd 42fa bdbd b698 163f
00000090: 61a9 3b3f f2a8 243f 02d1 243f 699e a23e
000000a0: 845a e73e c08f 613d 87e6 dfbd 5c51 a73f
000000b0: 2c17 e33d c7dc 263f 1cfb 2d3f af08 0fbe
000000c0: 0013 deba 8e7f 5e3e ce5f a0be e055 8cbe
000000d0: e085 84bd 606a b3be d0c8 443d ea2a 80be
000000e0: 877a a2be f010 13be b4fe 41be 00f7 eeba
000000f0: 529e 723e 4c54 b0bd 6026 903d 628a 233e

autoencoders.node1.encoder.model.2.bias f4 [8]
0.09510866 0.0089911735 0.022388691 0.765936 -0.05283949 0.09713997 0.3125488 -0.092737764
00000000: 54c8 c23d b74f 133c 7d68 b73c 6214 443f
00000010: 396e 58bd 52f1 c63d 6506 a03e 4ced bdbd

autoencoders.node1.encoder.model.4.weight f4 [8, 8]
0.22370198 -0.2888328 0.055109717 -0.7709603 -0.9639545 -0.34415147 -0.037494034 -0.34315777
-0.110000744 0.28497583 0.041600842 -0.32126388 -0.33332053 -0.35200197 -0.1832172 0.066574514
-0.16597766 0.25756216 0.20937568 1.1985776 0.86259156 1.2468866 -0.2959829 -0.19075108
-0.20121752 0.17173629 -0.31009522 0.03190648 0.35418814 0.45475748 0.23006412 0.14619675
-0.24969739 0.11358786 -0.10181445 0.6287278 0.52615094 0.8618997 0.23064288 0.036991984
-0.34377372 0.2706336 0.21496475 -0.03877309 -0.5434073 -0.5055859 0.18612859 -0.33170122
0.15093598 0.034055162 0.29656276 0.15005505 0.15395293 -0.14875732 -0.16689208 -0.19207717
-0.34281293 -0.0614307 -0.022013996 -0.30435523 -0.07134026 0.19178315 0.028769195 -0.13733955
00000000: 2212 653e e5e1 93be baba 613d a75d 45bf
00000010: b9c5 76bf 9f34 b0be 5893 19bd 60b2 afbe
00000020: 1248 e1bd 5ae8 913e a565 2a3d b37c a4be
00000030: fda8 aabe 9a39 b4be 4a9d 3bbe 3858 883d
00000040: 0cf6 29be 30df 833e 9466 563e fe6a 993f
00000050: cdd2 5c3f fb99 9f3f 128b 97be 4054 43be
00000060: f70b 4ebe a3db 2f3e cdc4 9ebe 5fb0 023d
00000070: 2658 b53e f9d5 e83e ee95 6b3e 9ab4 153e
00000080: acb0 7fbe c0a0 e83d 1884 d0bd 4ef4 203f
00000090: d4b1 063f 75a5 5c3f a62d 6c3e e884 173d
000000a0: 1c03 b0be 7d90 8a3e b81f 5c3e 88d0 1ebd
000000b0: be1c 0bbf 146e 01bf 7e98 3e3e bed4 a9be
000000c0: f68e 1a3e 6d7d 0b3d 13d7 973e 08a8 193e
000000d0: d6a5 1d3e d753 18be c2e5 2abe e1af 44be
000000e0: 2d85 afbe c29e 7bbd b256 b4bc 73d4 9bbe
000000f0: d81a 92bd cd62 443e 60ad eb3c bda2 0cbe

autoencoders.node1.encoder.model.4.bias f4 [8]
-0.7391693 -0.22635354 0.6694339 -0.29955828 -0.080797285 -0.031129679 0.07687595 -0.39747003
00000000: 333a 3dbf 39c9 67be 0560 2b3f b45f 99be
00000010: 0c79 a5bd ab03 ffbc 2371 9d3d 3181 cbbe

autoencoders.node1.decoder.model.0.weight f4 [8, 8]
0.08347964 0.15465078 -0.27519122 -0.052495718 0.20949796 0.31536922 -0.24727651 -0.19002101
-0.26627114 -0.2819722 -0.26773006 0.33099973 0.007630426 -0.36352438 -0.07304852 -0.43404508
-0.27785853 0.099032305 -0.0700363 -0.018076872 0.13494062 0.38818878 0.58874935 -0.30269307
-0.27896616 -0.10586621 -0.082051486 0.122326836 0.09589271 -0.3004864 -0.4274286 -0.05455347
0.066414505 0.18109086 -0.31707478 -0.31753668 -0.020237237 -0.1355078 -0.14410193 -0.3419196
0.15880957 -0.059531987 0.2788703 -0.227046 -0.32125068 -0.0045877397 0.08394459 0.20608762
-0.041805297 0.27159074 -0.19290908 -0.2994899 -0.17442064 -0.14125778 0.12248349 0.2829689
0.29212907 -0.2754371 -0.08428578 0.0772807 0.2040687 -0.2464099 -0.12812585 0.10762487
00000000: 60f7 aa3d c65c 1e3e dde5 8cbe c005 57bd
00000010: a286 563e 1378 a13e 0e36 7dbe de94 42be
00000020: b154 88be a95e 90be ea13 89be cc78 a93e
00000030: a708 fa3b de1f babe 769a 95bd 283b debe
00000040: 7943 8ebe 73d1 ca3d 316f 8fbd f315 94bc
00000050: e02d 0a3e aec0 c63e 47b8 163f 96fa 9abe
00000060: a7d4 8ebe 62d0 d8bd 9c0a a8bd 7e86 fa3d
00000070: 6663 c43d 5ad9 99be ecd7 dabe 7673 5fbd
00000080: 5404 883d e26f 393e a057 a2be 2b94 a2be
00000090: 90c8 a5bc 8fc2 0abe 758f 13be 1610 afbe
000000a0: fa9e 223e d0d7 73bd 17c8 8e3e bf7e 68be
000000b0: f87a a4be c054 96bb 24eb ab3d a208 533e
000000c0: 083c 2bbd f10d 8b3e f589 45be bd56 99be
000000d0: 539b 32be e1a5 10be a0d8 fa3d 4de1 903e
000000e0: f191 953e 1706 8dbe 069e acbd 5845 9e3d
000000f0: 63f7 503e e052 7cbe 6c33 03be 6e6a dc3d

autoencoders.node1.decoder.model.0.bias f4 [8]
-0.22522484 0.3411159 -0.52280796 -0.25427336 -0.019141018 -0.24976335 -0.15406169 0.23001869
00000000: 57a1 66be bea6 ae3e bed6 05bf 1e30 82be
00000010: a0cd 9cbc f7c1 7fbe 59c2 1dbe 058a 6b3e

autoencoders.node1.decoder.model.2.weight f4 [8, 8]
0.001594156 -0.10085867 -0.35247275 -0.115456656 -0.118074134 0.26052812 0.13904089 -0.091987684
0.30593017 0.16953953 0.66785294 -0.21310169 0.3208095 -0.1921836 0.08371058 0.20169376
0.16619119 -0.1990349 0.027195662 0.044027537 0.23456493 -0.16809107 -0.30132523 -0.24928111
0.25830838 0.23396537 0.8572775 -0.111224785 -0.29631084 0.027714998 -0.147794 -0.88436097
-0.30178887 -0.10320887 -0.06929818 -0.269359 -0.134694 -0.1150431 0.3152831 -0.1588486
-0.07793999 0.4075487 -0.096048646 0.029190773 -0.16671033 0.14460748 0.21636316 0.25101617
-0.19608977 0.048568908 -0.21458858 -0.3160245 0.32132104 0.25535372 -0.117908806 0.12093562
-0.0042575 0.23306255 -0.09841854 0.32714498 0.24582222 -0.027763993 0.0076244473 0.44991046
00000000: 00f3 d03a fe8e cebd 4f77 b4be 8a74 ecbd
00000010: dad0 f1bd f163 853e bc60 0e3e 0a64 bcbd
00000020: e1a2 9c3e c59b 2d3e 69f8 2a3f 5437 5abe
00000030: 2541 a43e c7cb 44be 7470 ab3d cf88 4e3e
00000040: 062e 2a3e cecf 4bbe 70c9 de3c 3856 343d
00000050: ca31 703e 1120 2cbe 4d47 9abe 8c43 7fbe
00000060: ff40 843e 9e94 6f3e 8a76 5b3f d2c9 e3bd
00000070: 0eb6 97be 900a e33c 4f57 17be 7b65 62bf
00000080: 1284 9abe 2c5f d3bd 34ec 8dbd 6ce9 89be
00000090: 39ed 09be b89b ebbd c96c a13e 35a9 22be
000000a0: 009f 9fbd 39aa d03e 27b5 c4bd 7d21 ef3c
000000b0: 1db6 2abe fc13 143e 4e8e 5d3e 3185 803e
000000c0: c2cb 48be 31f0 463d 1cbd 5bbe f7cd a1be
000000d0: 3184 a43e b9bd 823e 2c7a f1bd 18ad f73d
000000e0: 8082 8bbb f3a7 6e3e a98f c9bd 8c7f a73e
000000f0: d2b8 7b3e 5071 e3bc 80d6 f93b aa5a e63e

autoencoders.node1.decoder.model.2.bias f4 [8]
0.112650394 -0.40424788 -0.062160283 -0.5402471 -0.08707535 0.041016348 -0.17027049 0.24821165
00000000: 40b5 e63d 94f9 cebe c89b 7ebd a24d 0abf
00000010: 9054 b2bd c200 283d 635b 2ebe 322b 7e3e

autoencoders.node1.decoder.model.4.weight f4 [3, 8]
-0.30555764 0.40830076 0.040656954 1.2275783 0.10382959 0.070594735 -0.2827682 -0.01128525
0.114329435 0.28953674 0.33069435 -0.40977547 0.17650756 0.5152291 0.10733518 0.42562804
0.09937792 -0.038383376 -0.07107586 -0.08161658 0.0988701 0.19175117 -0.14776002 0.08454428
00000000: 0d72 9cbe cc0c d13e e887 263d 4921 9d3f
00000010: 9ca4 d43d f993 903d fec6 90be c5e5 38bc
00000020: 8d25 ea3d 293e 943e c550 a93e 17ce d1be
00000030: 66be 343e 0ee6 033f 8cd2 db3d ebeb d93e
00000040: a786 cb3d e337 1dbd 3890 91bd 9826 a7bd
00000050: 687c ca3d 6b5a 443e 674e 17be 8d25 ad3d

autoencoders.node1.decoder.model.4.bias f4 [3]
-0.3489404 0.50115705 -0.061920617
00000000: 51a8 b2be d44b 003f 79a0 7dbd

autoencoders.node2.encoder.model.0.weight f4 [8, 5]
0.5735031 -0.21631648 0.27291086 -0.30366892 0.44593242 -0.33799556 0.36497194 -0.27053946
0.39873874 0.15760642 0.24592383 -0.42265594 0.5730142 -0.12591098 0.10359546 0.05350802
0.11915994 0.43166256 0.08639349 -0.2655172 -0.08632293 0.311746 0.2757912 0.0814515
0.2592807 0.5491139 0.33713555 0.2457766 0.3339236 -0.07122182 -0.19791606 0.09676278
0.0021360517 -0.1297727 -0.118174225 -0.1650607 0.32885486 -0.1880278 0.29797202 -0.38627684
00000000: 19d1 123f 1182 5dbe f9ba 8b3e 7e7a 9bbe
00000010: 4151 e43e c10d adbe 9add ba3e 2684 8abe
00000020: 7c27 cc3e 9463 213e 75d3 7b3e 5c66 d8be
00000030: 0fb1 123f cfee 00be db29 d43d 3a2b 5b3d
00000040: 200a f43d e002 dd3e 12ef b03d dff1 87be
00000050: 14ca b0bd 2c9d 9f3e 8134 8d3e 0bd0 a63d
00000060: 71c0 843e bb92 0c3f 089d ac3e dcac 7b3e
00000070: 09f8 aa3e bfdc 91bd 82aa 4abe 902b c63d
00000080: 00fd 0b3b 22e3 04be 5405 f2bd ac05 29be
00000090: aa5f a83e 5c8a 40be ca8f 983e 14c6 c5be

autoencoders.node2.encoder.model.0.bias f4 [8]
0.33319473 -0.36821365 0.281202 -0.042123236 0.702749 -0.17807795 0.44478852 0.41017753
00000000: 8098 aa3e 8086 bcbe b5f9 8f3e 6a89 2cbd
00000010: 5ce7 333f 115a 36be 52bb e33e ca02 d23e

autoencoders.node2.encoder.model.2.weight f4 [8, 8]
0.47477782 0.340324 -0.16588135 0.026269907 -0.33859983 0.5858318 -0.03831908 0.20752224
-0.087963246 0.14924935 0.2604627 -0.2630381 0.3113275 -0.36261356 -0.026937306 -0.08369467
-0.106563926 0.35065445 -0.2211443 0.013462424 0.018541038 0.1251933 -0.08107817 0.2710587
0.30003986 -0.20534383 -0.13452104 -0.2513335 0.2060667 -0.3546487 -0.11831944 -0.16473335
0.19720377 -0.117437094 0.4219477 0.27056113 0.25013715 0.36623076 -0.031341285 0.07987362
-0.16569194 0.14892659 -0.10875943 0.26703402 -0.15148741 -0.058216095 -0.3099513 0.21327248
-0.21676789 0.31650057 0.106559455 -0.02003327 -0.13251509 -0.08103216 -0.2518112 0.1068528
-0.33728412 -0.15358876 -0.24988198 0.12591222 0.11304939 0.31116748 -0.053893268 0.291513
00000000: 1416 f33e f33e ae3e cddc 29be fd33 d73c
00000010: f55c adbe 13f9 153f 78f4 1cbd b680 543e
00000020: 1326 b4bd d2d4 183e 5e5b 853e eeac 86be
00000030: 5166 9f3e 7ca8 b9be a0ab dcbc 1c68 abbd
00000040: 303e dabd fb88 b33e a773 62be 8091 5c3c
00000050: 60e3 973c ac32 003e 500c a6bd 35c8 8a3e
00000060: d39e 993e a745 52be e2bf 09be c9ae 80be
00000070: 2603 533e 8494 b5be 7651 f2bd dcaf 28be
00000080: c9ef 493e dc82 f0bd 8709 d83e fd86 8a3e
00000090: fa11 803e 9982 bb3e b85f 00bd c894 a33d
000000a0: 26ab 29be 3680 183e 44bd debd afb8 883e
000000b0: 841f 1bbe 0074 6ebd f0b1 9ebe 1a64 5a3e
000000c0: 67f8 5dbe 5d0c a23e d83b da3d d01c a4bc
000000d0: 09b2 07be 30f4 a5bd 66ed 80be a4d5 da3d
000000e0: 81b0 acbe 5f46 1dbe 10e1 7fbe 22ef 003e
000000f0: 7086 e73d 5851 9f3e 30bf 5cbd 3141 953e

autoencoders.node2.encoder.model.2.bias f4 [8]
0.014075575 -0.245769 -0.2546672 -0.017353268 -0.17098896 0.23966941 -0.2766151 0.14428839
00000000: 3e9d 663c deaa 7bbe bd63 82be 7128 8ebc
00000010: bb17 2fbe e66b 753e 7fa0 8dbe 56c0 133e

autoencoders.node2.encoder.model.4.weight f4 [8, 8]
-0.18123391 0.025471509 -0.096275926 0.13816035 0.46874267 -0.34852237 -0.30312568 -0.023324244
0.24884164 0.31752187 0.15599892 0.030184262 -0.4324466 0.07804513 -0.136362 0.12953256
-0.10066448 -0.05236915 0.24630645 0.29669636 -0.4679162 -0.2142981 -0.13596742 -0.01594624
0.24924628 0.23937115 -0.029608995 -0.21487235 0.45508817 -0.12588063 -0.15807234 0.16639288
0.93554366 0.08837659 -0.08434445 -0.105569944 -0.21922326 0.25937775 0.19600204 0.14816229
-0.3396341 0.17918749 0.046316266 -0.15248223 -0.28463936 0.15595683 0.0016784966 0.26585752
1.7068104 0.1771889 -0.27092892 -0.29153845 0.1291967 -0.022622436 -0.34990466 -0.14755043
-0.44990575 -0.25430173 0.072437495 0.14463475 -0.3888381 -0.3022962 0.23152867 0.19212368
00000000: 6295 39be a0a9 d03c 502c c5bd e879 0d3e
00000010: 0aff ef3e 8671 b2be 4a33 9bbe 7c12 bfbc
00000020: 58d0 7e3e 3a92 a23e 2ebe 1f3e fc44 f73c
00000030: a469 ddbe 20d6 9f3d 7ba2 0bbe 2fa4 043e
00000040: 2e29 cebd 0981 56bd c237 7c3e 96e8 973e
00000050: b692 efbe f670 5bbe 0b3b 0bbe b0a1 82bc
00000060: 6b3a 7f3e b61d 753e 908e f2bc 7f07 5cbe
00000070: 5101 e93e dae6 00be b7dd 21be e562 2a3e
00000080: ca7f 6f3f c9fe b43d c8bc acbd 0e35 d8bd
00000090: 107c 60be 29cd 843e c2b4 483e dbb7 173e
000000a0: 85e4 adbe ed7c 373e 20b6 3d3d 4d24 1cbe
000000b0: 40bc 91be 26b3 1f3e 0001 dc3a 7a1e 883e
000000c0: c378 da3f 0271 353e 32b7 8abe 8744 95be
000000d0: 244c 043e b052 b9bc b426 b3be 7617 17be
000000e0: 0c5a e6be d633 82be 1c5a 943d 221b 143e
000000f0: ca15 c7be 91c6 9abe da15 6d3e 12bc 443e

autoencoders.node2.encoder.model.4.bias f4 [8]
0.333558 -0.0075793816 -0.1588174 0.07859884 -0.038296115 -0.32341316 0.06585848 0.049073566
00000000: 1dc8 aa3e 765c f8bb 07a1 22be 6ef8 a03d
00000010: 63dc 1cbd 6996 a5be d0e0 863d 5d01 493d

autoencoders.node2.decoder.model.0.weight f4 [8, 8]
0.15073419 -0.18863517 -0.501357 0.2211268 -0.2120348 -0.46650326 -0.07832598 -0.50054777
-0.19520861 0.07805326 -0.299001 0.06380324 -0.08926561 0.03004855 0.07037427 -0.15197204
0.2085426 -0.21183726 -0.3429682 0.24531199 -0.06377131 -0.40589222 0.5241491 -0.13739286
-0.100277185 0.13685352 0.12975198 0.13527271 -0.09087485 0.2344136 0.009944499 0.25446174
-0.13686723 -0.09920731 0.16339184 0.029185267 0.13601917 -0.1621677 -0.0022131244 0.33940318
-0.38534352 0.40965855 -0.29729742 0.13590208 0.6880138 -0.068266734 0.27873152 0.1942022
0.07406795 0.18134198 0.04905662 -0.27781883 -0.27094924 0.24750713 -0.0030508935 0.26570657
0.39802623 -0.4145389 -0.44271564 0.44477728 -0.355066 0.0037080925 -0.091593385 -0.27003643
00000000: 105a 1a3e 9429 41be ef58 00bf 106f 623e
00000010: a71f 59be 84d9 eebe 5f69 a0bd e623 00bf
00000020: c4e4 47be 63da 9f3d a916 99be 46ab 823d
00000030: e3d0 b6bd 6028 f63c 6320 903d 8f9e 1bbe
00000040: 318c 553e deeb 58be 8799 afbe 1133 7b3e
00000050: 889a 82bd 1bd1 cfbe a32e 063f b7b0 0cbe
00000060: 205e cdbd 5423 0c3e b4dd 043e ee84 0a3e
00000070: 981c babd 1e0a 703e 40ee 223c cf48 823e
00000080: ec26 0cbe 342d cbbd 3150 273e f115 ef3c
00000090: 9c48 0b3e 4a0f 26be 110a 11bb 41c6 ad3e
000000a0: bf4b c5be c4be d13e 5e37 98be ea29 0b3e
000000b0: ac21 303f 6ecf 8bbd e6b5 8e3e f1dc 463e
000000c0: f0b0 973d b6b1 393e 98ef 483d 453e 8ebe
000000d0: dcb9 8abe 8272 7d3e 80f1 47bb b10a 883e
000000e0: 18ca cb3e 713e d4be a0ab e2be d9b9 e33e
000000f0: 36cb b5be 7803 733b 5095 bbbd 3742 8abe

autoencoders.node2.decoder.model.0.bias f4 [8]
0.16750255 -1.5081426 0.40391102 -0.026072383 0.07002669 0.47536087 -0.34443292 0.001882868
00000000: ca85 2b3e d10a c1bf 6dcd ce3e c095 d5bc
00000010: 276a 8f3d 8062 f33e 8359 b0be 91ca f63a

autoencoders.node2.decoder.model.2.weight f4 [8, 8]
0.43257475 0.69475836 0.25214753 0.21503177 0.14891648 0.24183118 0.28902534 0.0058660735
0.09170966 0.6935759 0.25328004 0.097148865 -0.19527438 0.8816483 -0.023089647 -0.5198707
0.43189266 0.08099454 0.4570452 -0.09170434 0.045596357 -0.43238404 -0.18127245 0.30363593
0.4556395 0.6418539 0.35267773 0.24367335 -0.08499741 -0.4644868 -0.053515613 0.5405366
-0.17165622 -0.2158388 0.12953131 0.0041350126 -0.2088544 -0.2775631 0.26572713 0.054510694
0.43196255 0.087805316 0.45219064 -0.07066965 -0.025910923 -0.26514763 -0.19819799 0.048225034
-0.09199792 0.20903125 -0.2517411 0.08183181 -0.27465677 -0.11745125 -0.12563364 -0.15228288
-0.10095756 0.091469586 -0.17635378 -0.11508125 -0.17816083 0.07282146 0.04270315 -0.11932175
00000000: 707a dd3e afdb 313f 7b19 813e 4a31 5c3e
00000010: 907d 183e 98a2 773e 21fb 933e 3138 c03b
00000020: 46d2 bb3d 318e 313f ecad 813e fcf5 c63d
00000030: 02f6 47be b4b3 613f 8026 bdbc 3f16 05bf
00000040: 0921 dd3e 77e0 a53d d401 ea3e 7ccf bbbd
00000050: 3fc3 3a3d 7161 ddbe 7c9f 39be 2b76 9b3e
00000060: 9549 e93e 8a50 243f 2d92 b43e 8285 793e
00000070: 1f13 aebd 37d1 edbe 3033 5bbd 9b60 0a3f
00000080: a6c6 2fbe d904 5dbe dba3 043e 007f 873b
00000090: eedd 55be c01c 8ebe 630d 883e 9b46 5f3d
000000a0: 322a dd3e 46d3 b33d 8885 e73e 40bb 90bd
000000b0: 2543 d4bc 6ec1 87be 6af4 4abe 9d87 453d
000000c0: 6869 bcbd 4a0c 563e 36e4 80be 7097 a73d
000000d0: d09f 8cbe 488a f0bd 1ba6 00be 0bf0 1bbe
000000e0: d6c2 cebd 6854 bb3d 1696 34be b8af ebbd
000000f0: cb6f 36be 6b23 953d 80e9 2e3d f65e f4bd

autoencoders.node2.decoder.model.2.bias f4 [8]
0.14601055 0.8365657 0.048823643 -0.15112549 -0.3510507 -0.013475258 0.13951239 0.29235882
00000000: ca83 153e 2b29 563f 4dfb 473d a4c0 1abe
00000010: ebbc b3be 54c7 5cbc 56dc 0e3e 0eb0 953e

autoencoders.node2.decoder.model.4.weight f4 [5, 8]
0.2435977 1.0139186 0.032016017 0.05868312 0.14633314 -0.16220124 -0.3468431 0.3723369
0.12507407 -0.062172636 0.16151565 -0.1665999 -0.33870092 -0.059269927 -0.24833791 -0.24558337
0.51753587 -0.9272233 0.4163291 0.49045965 -0.23734622 0.17374569 -0.34191343 -0.23766401
-0.06645722 0.08920025 0.14087197 0.006360769 0.35910437 -0.122013904 -0.2630258 0.037543964
0.048912525 0.008925644 -0.028119404 0.080056556 -0.04832528 -0.12476801 0.3520176 0.17500158
00000000: ad71 793e 16c8 813f 3a23 033d b65d 703d
00000010: 5bd8 153e 1518 26be 6b95 b1be f1a2 be3e
00000020: 6b13 003e bca8 7ebd 5c64 253e 2a99 2abe
00000030: 356a adbe 06c5 72bd 4b4c 7ebe 357a 7bbe
00000040: 3b7d 043f 825e 6dbf 1629 d53e 871d fb3e
00000050: e30a 73be 64ea 313e 470f afbe 325e 73be
00000060: b91a 88bd 9fae b63d be40 103e ff6d d03b
00000070: 87dc b73e 6de2 f9bd 51ab 86be b3c7 193d
00000080: 8058 483d dd3c 123c aa5a e6bc b1f4 a33d
00000090: bbf0 45bd 5f86 ffbd a73b b43e 9d33 333e

autoencoders.node2.decoder.model.4.bias f4 [5]
0.68137896 -0.06644752 0.061388742 0.37700826 0.5090276
00000000: da6e 2e3f a315 88bd c372 7b3d 3a07 c13e
00000010: a24f 023f

autoencoders.node3.encoder.model.0.weight f4 [8, 2]
-0.15002805 -0.18093985 -0.17189163 -0.62706333 -0.22210175 -0.26753125 -0.2495234 -0.10016358
-0.41670477 0.6620685 -0.3654565 0.48336634 0.5032566 -0.5692643 0.6106295 0.75033444
00000000: f4a0 19be 4c48 39be 5c04 30be 3987 20bf
00000010: a46e 63be dbf9 88be 1083 7fbe 9022 cdbd
00000020: 545a d5be 527d 293f 1d1d bbbe cb7b f73e
00000030: 6dd5 003f 4ebb 11bf 3752 1c3f eb15 403f

autoencoders.node3.encoder.model.0.bias f4 [8]
-0.5390277 -0.66030025 0.05119866 -0.11828083 0.2528153 0.6322609 0.09007019 0.8693336
00000000: b8fd 09bf 7009 29bf b0b5 513d 383d f2bd
00000010: 0271 813e dadb 213f b876 b83d a68c 5e3f

autoencoders.node3.encoder.model.2.weight f4 [8, 8]
-0.20653388 0.12586883 0.046230078 -0.23836078 0.022327304 -0.21787202 -0.25427586 -0.03546393
-0.34866065 0.2793403 0.3136659 -0.2565043 0.45406184 0.3442131 0.24436548 0.09857066
-0.017828107 0.10120562 -0.048315167 -0.15367077 0.2142921 0.56530106 -0.27824047 0.44727516
-0.11748193 0.27094296 -0.34830278 -0.18256523 0.40326592 0.0659311 0.29544172 0.30099362
0.108377635 -0.25508106 -0.21706483 -0.34104374 -0.20042284 -0.15382735 0.020788133 -0.070821315
-0.12768593 0.16074535 -0.11849983 0.15071711 0.36465883 0.45135775 0.06476125 0.3186921
-0.17486732 0.34706256 -0.09596926 -0.3251186 0.120630644 0.2356686 0.29003963 0.30162364
-0.20920531 -0.31954673 -0.3232542 -0.17280085 0.32291216 -0.23022634 -0.16458522 -0.17605597
00000000: 9e7d 53be c2e3 003e c05b 3d3d d914 74be
00000010: c0e7 b63c d819 5fbe 7230 82be a042 11bd
00000020: a683 b2be b105 8f3e d198 a03e 8854 83be
00000030: cb7a e83e b33c b03e f23a 7a3e 6adf c93d
00000040: 400c 92bc e444 cf3d 20e6 45bd df5b 1dbe
00000050: 636f 5b3e 92b7 103f 8975 8ebe 4001 e53e
00000060: 5e9a f0bd 09b9 8a3e be54 b2be 61f2 3abe
00000070: df78 ce3e e206 873d 2344 973e d61b 9a3e
00000080: 18f5 dd3d fc99 82be 3e46 5ebe 499d aebe
00000090: a53b 4dbe eb84 1dbe e04b aa3c c40a 91bd
000000a0: 1ac0 02be 6e9a 243e 0ab0 f2bd 9655 1a3e
000000b0: 90b4 ba3e 5d18 e73e 8ca1 843d 9c2b a33e
000000c0: 6b10 33be 2fb2 b13e 888b c4bd f275 a6be
000000d0: 330d f73d 1c53 713e 1380 943e 6a6e 9a3e
000000e0: eb39 56be a19b a3be 9381 a5be b5f2 30be
000000f0: be54 a53e 74c0 6bbe 0789 28be 0448 34be

autoencoders.node3.encoder.model.2.bias f4 [8]
-0.16739805 -0.13511528 0.2953561 -0.39709833 -0.01061219 0.65405893 0.7155445 -0.29912788
00000000: 656a 2bbe a95b 0abe ea38 973e 7950 cbbe
00000010: c0de 2dbc 6870 273f ed2d 373f 4a27 99be

autoencoders.node3.encoder.model.4.weight f4 [8, 8]
0.124962 -0.3550123 -0.6669437 -0.63671744 0.26743647 -0.76806545 -0.82653564 -0.059149735
-0.31269497 0.13363022 0.7808354 0.15662833 -0.065354675 0.83359593 0.92976624 -0.3159511
0.09227446 -0.1460864 -0.12371472 -0.28140405 0.078009695 0.22986992 0.013055799 0.24068214
0.011402994 -0.1687805 -0.28083768 0.45292968 -0.019993663 0.045667026 -0.18750754 -0.18385056
-0.28602326 -0.38525692 0.15531208 -0.16911098 -0.010708094 -0.16535823 0.44197714 -0.22961293
-0.016040176 -0.16599159 -0.1065952 -0.19539475 -0.13544121 0.238802 0.055460412 -0.010842479
0.19654122 -0.5773439 -0.4614851 -0.07286757 -0.24062921 -0.6925332 -0.91423464 -0.20718752
0.19154909 0.34201592 0.36923692 0.60981107 0.13996974 0.10736274 0.27005106 0.15125887
00000000: 14ec ff3d 2cc4 b5be d3bc 2abf eaff 22bf
00000010: 6fed 883e f09f 44bf d797 53bf fe46 72bd
00000020: 8e19 a0be 5cd6 083e d4e4 473f 2d63 203e
00000030: acd8 85bd 8b66 553f 2905 6e3f 58c4 a1be
00000040: 64fa bc3d ac97 15be 255e fdbd 3114 90be
00000050: 8cc3 9f3d 0563 6b3e fde7 553c 6175 763e
00000060: a0d3 3a3c ccd4 2cbe f5c9 8fbe 66e6 e73e
00000070: c0c9 a3bc 590d 3b3d fa01 40be 5243 3cbe
00000080: a471 92be 6540 c5be 210a 1f3e 6e2b 2dbe
00000090: 0071 2fbc ab53 29be d44a e23e a71f 6bbe
000000a0: b066 83bc b3f9 29be 964e dabd 9015 48be
000000b0: 1ab1 0abe 8388 743e 752a 633d a7a4 31bc
000000c0: 1a42 493e cfcc 13bf c647 ecbe 983b 95bd
000000d0: 8167 76be db49 31bf 480b 6abf f728 54be
000000e0: 7225 443e b61c af3e 9f0c bd3e 941c 1c3f
000000f0: 3a54 0f3e ffe0 db3d 2244 8a3e 9be3 1a3e

autoencoders.node3.encoder.model.4.bias f4 [8]
-0.39498648 0.18720128 0.54335773 -0.33034113 0.45266256 0.4142522 -0.64785486 0.48212796
00000000: ab3b cabe b1b1 3f3e 7e19 0b3f 7922 a9be
00000010: 63c3 e73e dd18 d43e d1d9 25bf 7ad9 f63e

autoencoders.node3.decoder.model.0.weight f4 [8, 8]
-0.00985229 0.027808994 0.19395915 0.06865263 -0.09226367 0.017328411 0.10310042 -0.19981314
-0.22466937 -0.22846363 0.26433977 -0.15456092 0.010539225 0.04165198 0.26334414 0.31589872
-0.37542468 0.37385646 -0.380919 -0.0016141006 -0.47157323 0.020881454 0.10939328 0.10030712
0.22756293 -0.06566291 -0.3348792 0.34256396 -0.3199541 0.021686366 -0.24287674 0.4283603
0.31967828 0.0799298 0.2016196 -0.33596542 0.038854033 -0.19184318 0.34115043 -0.3361952
-0.214304 0.035462037 -0.5581477 0.40944275 -0.41290122 -0.2956136 -0.07566003 0.16432555
-0.15213339 -0.083144024 -0.36412635 0.34962428 -0.28174204 -0.42125604 -0.03301462 0.07140936
-0.2907304 0.30793014 0.09640183 -0.07857581 -0.090547025 0.12556458 -0.44463503 0.21618031
00000000: 806b 21bc b0cf e33c 3a9d 463e c099 8c3d
00000010: bcf4 bcbd 50f4 8d3c 5026 d33d d19b 4cbe
00000020: ba0f 66be 5ff2 69be 8b57 873e 3845 1ebe
00000030: b7ac 2c3c 449b 2a3d 0bd5 863e 7abd a13e
00000040: aa37 c0be 1d6a bf3e d107 c3be 3b90 d3ba
00000050: 0c72 f1be 950f ab3c 9609 e03d d26d cd3d
00000060: 4206 693e 477a 86bd 4975 abbe 8b64 af3e
00000070: 06d1 a3be 9ba7 b13c aeb4 78be 0b52 db3e
00000080: dfac a33e 3cb2 a33d 5e75 4e3e a903 acbe
00000090: 6825 1f3d 8a72 44be 45ab ae3e c721 acbe
000000a0: 8272 5bbe a440 113d c5e2 0ebf 7ba2 d13e
000000b0: ca67 d3be aa5a 97be a5f3 9abd f544 283e
000000c0: dbc8 1bbe 6a47 aabd c56e babe f401 b33e
000000d0: 7e40 90be dfae d7be 573a 07bd 123f 923d
000000e0: 9dda 94be 05a9 9d3e 536e c53d 5bec a0bd
000000f0: b870 b9bd 0094 003e 34a7 e3be 5f5e 5d3e

autoencoders.node3.decoder.model.0.bias f4 [8]
0.034304976 -0.2426334 0.19927774 0.12212948 0.13657328 -0.27815488 0.16984119 0.3194064
00000000: 6083 0c3d e474 78be 770f 4c3e 051f fa3d
00000010: ded9 0b3e 516a 8ebe d9ea 2d3e 3c89 a33e

autoencoders.node3.decoder.model.2.weight f4 [8, 8]
-0.13211486 -0.26575452 -0.1035171 0.046950776 0.1381191 0.06043001 0.23529331 -0.22448762
-0.29934743 -0.29082006 -0.09186086 0.45721385 -0.013599873 0.29916716 0.49032918 0.40176922
0.05401835 -0.22187212 -0.04977335 0.2238369 -0.18648227 -0.1565331 0.11710855 -0.33983055
-0.25096542 -0.08034909 -0.073192 -0.37674394 -0.1444066 -0.3098357 -0.4538619 0.289155
0.10680631 0.12910572 0.021555027 0.03446798 -0.10032067 -0.2399638 0.1595361 -0.31504655
-0.10207382 -0.032331932 -0.12777768 0.11615774 -0.11992557 -0.30068386 -0.26078352 0.008655018
0.29583493 -0.11390355 -0.00026041816 -0.12762894 -0.34646404 -0.29598206 0.21362732 -0.19144416
0.002297014 0.29345933 0.38482457 0.052470915 -0.2883564 0.4260307 -0.09580021 0.21216005
00000000: 1e49 07be fa10 88be c600 d4bd 754f 403d
00000010: 186f 0d3e 7585 773d bbf0 703e 15e0 65be
00000020: 1144 99be 5ee6 94be 8c21 bcbd ef17 ea3e
00000030: 00d2 5ebc 702c 993e 6d0c fb3e b2b4 cd3e
00000040: 5842 5d3d 7232 63be 24df 4bbd 8035 653e
00000050: 35f5 3ebe 374a 20be 9cd6 ef3d 45fe adbe
00000060: 8a7e 80be 108e a4bd b0e5 95bd 95e4 c0be
00000070: 53df 13be c9a2 9ebe 9660 e8be 200c 943e
00000080: 44bd da3d 4a34 043e 2b94 b03c 4c2e 0d3d
00000090: ec74 cdbd 12b9 75be 6e5d 233e c84d a1be
000000a0: 140c d1bd 7d6e 04bd 27d8 02be 1ce4 ed3d
000000b0: 8a9b f5bd 3cf3 99be 6b85 85be c7cd 0d3c
000000c0: ad77 973e 4446 e9bd bc88 88b9 29b1 02be
000000d0: bc63 b1be f68a 97be 1fc1 5a3e f009 44be
000000e0: 8089 163b 4d40 963e ba07 c53e beeb 563d
000000f0: 73a3 93be b220 da3e e732 c4bd 7c40 593e

autoencoders.node3.decoder.model.2.bias f4 [8]
-0.3740148 -0.16588165 0.020854143 0.27735618 0.21126671 0.27187628 0.1676958 0.12538792
00000000: de7e bfbe e1dc 29be 4fd6 aa3c a101 8e3e
00000010: 4d56 583e 5e33 8b3e 73b8 2b3e b165 003e

autoencoders.node3.decoder.model.4.weight f4 [2, 8]
-0.25697148 -0.2599488 0.07031873 -0.06181474 -0.28279477 -0.18740064 -0.05518866 0.24250908
-0.21818937 0.33752605 -0.24553306 -0.7116581 -0.26808122 -0.03470476 -0.03337978 0.4115013
00000000: c491 83be 0218 85be 4403 903d 7431 7dbd
00000010: 7aca 90be f4e5 3fbe 810d 62bd 4d54 783e
00000020: 096d 5fbe 37d0 ac3e 056d 7bbe 3a2f 36bf
00000030: f141 89be 9426 0ebd 3cb9 08bd 4cb0 d23e

autoencoders.node3.decoder.model.4.bias f4 [2]
-0.031967938 0.20442466
00000000: d0f0 02bd b354 513e

autoencoders.node4.encoder.model.0.weight f4 [8, 5]
-0.13848281 -0.055450656 0.49922168 -0.17160603 0.13565202 -0.20649546 0.20684318 0.21030721
-0.057787154 0.1522947 0.38094556 -0.1727173 0.187602 0.26639587 0.3400066 -0.10602537
-0.49277294 -0.05258339 -0.4072304 0.41854995 -0.32654184 -0.36235142 -0.30095154 0.38543123
-0.19460848 -0.27309728 -0.17779982 -0.3737452 0.30306184 -0.31157368 -0.13618818 0.36987364
-0.09853762 0.09613093 0.37023002 0.294866 0.47734168 -0.033409316 0.28495264 0.4341581
00000000: 70ce 0dbe 3a20 63bd fc99 ff3e 7eb9 2fbe
00000010: 5de8 0a3e 8c73 53be b3ce 533e c65a 573e
00000020: 39b2 6cbd 24f3 1b3e 4c0b c33e cedc 30be
00000030: bd1a 403e 0a65 883e 5815 ae3e d423 d9bd
00000040: bc4c fcbe ae61 57bd 8180 d0be 2e4c d63e
00000050: 7e30 a7be 2086 b9be 5216 9abe 3e57 c53e
00000060: 7247 47be 68d3 8bbe 2811 36be 885b bfbe
00000070: ec2a 9b3e 9686 9fbe ea74 0bbe 1460 bd3e
00000080: 17ce c9bd 4be0 c43d ca8e bd3e adf8 963e
00000090: 2166 f43e 35d8 08bd 50e5 913e f849 de3e

autoencoders.node4.encoder.model.0.bias f4 [8]
0.50281733 0.4351727 0.5042223 0.43300706 -0.38017625 -0.121530116 -0.08388641 0.5628357
00000000: a3b8 003f f5ce de3e b614 013f 1ab3 dd3e
00000010: 76a6 c2be c8e4 f8bd a3cc abbd 0016 103f

autoencoders.node4.encoder.model.2.weight f4 [8, 8]
0.60524756 0.027634053 0.16830613 0.020747745 -0.14052112 0.22476372 -0.048257783 -0.19159149
0.4286143 0.37065473 0.20044214 0.5802528 0.25618407 -0.00032389164 0.60810673 0.20078436
-0.01672548 0.09482661 -0.2269615 0.04378131 0.12984216 -0.3475669 -0.19391339 -0.16192861
0.39115015 0.34415552 0.21770978 0.52577823 -0.2660766 -0.1506177 0.09521794 0.4229198
0.32119218 0.39899108 0.4475688 0.272038 0.04405859 -0.034458578 0.29605612 0.013619746
-0.37745768 0.0810023 0.015483563 0.6050998 0.026406556 -0.15522714 0.6379893 0.16713889
-0.20281364 0.112070665 0.45892683 0.4298065 0.13368267 0.13386872 0.45239535 0.07152362
0.40324146 0.29015392 0.39094847 -0.49365446 -0.09592563 -0.28798532 -0.20281775 0.19132185
00000000: 81f1 1a3f cf60 e23c 7158 2c3e 2df7 a93c
00000010: c5e4 0fbe 7628 663e f4a9 45bd 8f30 44be
00000020: 5573 db3e 75c6 bd3e b440 4d3e 738b 143f
00000030: 8f2a 833e 00d0 a9b9 e2ac 1b3f 6a9a 4d3e
00000040: e003 89bc 7434 c23d 9868 68be 0854 333d
00000050: 58f5 043e 4af4 b1be 3b91 46be 9dd0 25be
00000060: d544 c83e 2735 b03e 50ef 5e3e 6799 063f
00000070: 313b 88be 873b 1abe a001 c33d f288 d83e
00000080: 4d73 a43e 8f48 cc3e bd27 e53e 9148 8b3e
00000090: c876 343d 7024 0dbd ab94 973e 5b25 5f3c
000000a0: 2242 c1be 89e4 a53d c5ae 7d3c d2e7 1a3f
000000b0: 9052 d83c ddf3 1ebe 4453 233f 7526 2b3e
000000c0: 61ae 4fbe 4e85 e53d 75f8 ea3e 990f dc3e
000000d0: 1ce4 083e e214 093e 5da0 e73e fa7a 923d
000000e0: aa75 ce3e 0e8f 943e 662a c83e 47c0 fcbe
000000f0: a874 c4bd d072 93be 75af 4fbe e0e9 433e

autoencoders.node4.encoder.model.2.bias f4 [8]
0.2313921 0.045210004 0.17051277 0.15850149 -0.17653638 -0.19008061 0.50931054 -0.04971617
00000000: 0df2 6c3e 202e 393d e69a 2e3e 374e 223e
00000010: f4c5 34be 7ea4 42be 2d62 023f 2fa3 4bbd

autoencoders.node4.encoder.model.4.weight f4 [8, 8]
-1.2615995 0.44190788 -0.07051158 0.21792912 0.202151 0.15869643 1.1406305 -0.5746167
-0.3142675 0.16515574 0.032455295 -0.4697232 -0.4002223 -0.4918904 -0.27694976 -0.38672504
0.119229935 -0.2827689 0.1454255 -0.3205777 -0.24493013 -0.18157265 -0.11715129 0.052038286
0.21099563 -0.14004827 0.28124228 -0.14486472 -0.2829248 -0.5282751 -0.17650132 -0.30705538
0.052681576 -0.44593155 0.2839007 -0.47450733 -0.06908094 -0.73186994 -0.50419796 -0.26625934
-0.16219905 0.4284608 -0.21018802 0.16582574 0.014796328 0.4970602 0.2584336 0.36729485
-0.109803736 -0.10444589 -0.15304667 -0.37841707 -0.060528714 0.09798242 -0.09031499 0.13695297
0.1742017 0.17101067 0.28971645 0.3094004 0.102720216 0.42601556 0.16358796 0.08160127
00000000: 187c a1bf c041 e23e 6068 90bd d028 5f3e
00000010: ac00 4f3e 5181 223e 2e00 923f 141a 13bf
00000020: abe7 a0be 961e 293e d8ef 043d 8f7f f0be
00000030: f0e9 ccbe 0fd9 fbbe 5ccc 8dbe d300 c6be
00000040: d32e f43d 16c7 90be 6cea 143e c322 a4be
00000050: f7ce 7abe 2eee 39be 04ed efbd 1926 553d
00000060: 3d0f 583e d068 0fbe fdfe 8f3e 6b57 14be
00000070: 85db 90be 093d 07bf c3bc 34be 5d36 9dbe
00000080: a3c8 573d 2451 e4be 6f5b 913e a0f2 f2be
00000090: 4f7a 8dbd d45b 3bbf 1e13 01bf 2553 88be
000000a0: 8217 26be 375f db3e 873b 57be 39ce 293e
000000b0: 4c6c 723c ad7e fe3e 6951 843e 120e bc3e
000000c0: c8e0 e0bd bae7 d5bd 44b8 1cbe e2bf c1be
000000d0: f5ec 77bd 02ab c83d 11f7 b8bd 663d 0c3e
000000e0: ee61 323e 6c1d 2f3e b755 943e bb69 9e3e
000000f0: fa5e d23d b61e da3e 9a83 273e 911e a73d

autoencoders.node4.encoder.model.4.bias f4 [8]
0.8310986 -0.001984802 -0.06643169 0.06761847 -0.2486231 -0.17554541 -0.14267461 0.07453841
00000000: e1c2 543f 7413 02bb 560d 88bd 8d7b 8a3d
00000010: 0e97 7ebe 2dc2 33be 4b19 12be 98a7 983d

autoencoders.node4.decoder.model.0.weight f4 [8, 8]
0.058241516 0.19204244 0.16628674 0.27104446 -0.021595836 -0.3325129 0.34477612 -0.0027909577
0.12370205 0.15701541 0.25921425 0.07179955 0.12412158 0.18165752 0.31652513 -0.32368758
-0.19385894 -0.2496206 -0.47034454 -0.119480155 -0.45289618 0.41498002 -0.28794903 0.48562998
-0.3149165 0.16544928 -0.18225469 0.23717603 0.016462287 0.23967722 -0.01672227 -0.1526913
-1.3910601 -0.695374 -0.14744951 -0.5036563 -0.005453705 0.44911358 -0.28670478 0.3241795
0.3360045 -0.3966301 -0.3246193 -0.27004814 -0.056555595 0.39810577 0.014609368 0.50273323
0.15015772 0.059240103 0.33942774 0.21281657 0.25476715 -0.2948395 -0.27672702 0.09414199
-0.85244536 -0.4904892 0.19731756 -0.09844277 -0.4444965 -0.11656736 -0.3531888 0.09694558
00000000: a88e 6e3d c6a6 443e 1247 2a3e 57c6 8a3e
00000010: c0e9 b0bc 213f aabe 7f86 b03e 80e8 36bb
00000020: 8057 fd3d a6c8 203e bbb7 843e a40b 933d
00000030: 7433 fe3d 6e04 3a3e 950f a23e 61ba a5be
00000040: f582 46be 8b9c 7fbe 00d1 f0be 03b2 f4bd
00000050: 02e2 e7be 4378 d43e 0e6e 93be 7ea4 f83e
00000060: bc3c a1be 896b 293e f9a0 3abe 46de 723e
00000070: ebdb 863c f26d 753e 24fd 88bc 1c5b 1cbe
00000080: 420e b2bf 0804 32bf 01fd 16be 9fef 00bf
00000090: feb4 b2bb 37f2 e53e f8ca 92be dbfa a53e
000000a0: c808 ac3e 1a13 cbbe 8034 a6be c043 8abe
000000b0: d7a6 67bd 85d4 cb3e 215c 6f3c 20b3 003f
000000c0: f2c2 193e c0a5 723d 79c9 ad3e 96ec 593e
000000d0: d770 823e 34f5 96be 2aaf 8dbe 84cd c03d
000000e0: dc39 5abf 6721 fbbe 9d0d 4a3e 5d9c c9bd
000000f0: 0c95 e3be deba eebd 2ad5 b4be 678b c63d

autoencoders.node4.decoder.model.0.bias f4 [8]
-0.11101395 -0.28439096 0.20616856 -0.35028127 -0.754075 0.18071611 -0.016350925 -0.061195485
00000000: 485b e3bd b19b 91be da1d 533e 1158 b3be
00000010: 0f0b 41bf a50d 393e 60f2 85bc 1ea8 7abd

autoencoders.node4.decoder.model.2.weight f4 [8, 8]
-0.22508486 -0.34565777 0.44782674 0.09729038 -0.0662639 0.35066137 0.2870262 -0.0098704295
-0.22755314 -0.019683123 -0.1292412 -0.2551238 -0.27297574 -0.33840647 -0.13490443 0.011595219
0.2595382 0.32680228 -0.33435225 -0.16650744 0.33374894 -0.16711389 0.30455372 0.31881914
-0.24252358 -0.11827013 0.21572548 0.15712942 -0.25343186 0.37341565 -0.30611318 -0.5347259
-0.31080166 -0.35050175 0.024578005 -0.12608913 0.18875071 -0.30036557 0.1923702 -0.2347574
-0.16170894 -0.11148006 0.21734084 -0.12664454 0.9109228 0.12184515 0.051335692 0.2873697
0.02445203 -0.015034616 -0.3503109 -0.18428878 0.051612917 0.3269143 0.009073585 -0.015730228
-0.31055292 -0.22336982 -0.08662291 -0.03659603 -0.24993792 -0.16563684 0.1620532 -0.27086675
00000000: a57c 66be 0efa b0be 8c49 e53e 2e40 c73d
00000010: 5eb5 87bd e389 b33e 19f5 923e 95b7 21bc
00000020: b103 69be 803e a1bc ce57 04be 969f 82be
00000030: 7ac3 8bbe 9d43 adbe 6324 0abe e0f9 3d3c
00000040: 31e2 843e a152 a73e 3830 abbe ed80 2abe
00000050: 24e1 aa3e e71f 2bbe 77ee 9b3e 433c a33e
00000060: 1a58 78be 9c37 f2bd 24e7 5c3e 89e6 203e
00000070: d2c1 81be 5630 bf3e deba 9cbe cce3 08bf
00000080: 6521 9fbe f774 b3be d057 c93c 821d 01be
00000090: de47 413e 84c9 99be b2fc 443e 3e64 70be
000000a0: 0797 25be a84f e4bd 998e 5e3e 1baf 01be
000000b0: 3d32 693f f389 f93d 6045 523d 1f22 933e
000000c0: a04f c83c c053 76bc f35b b3be 33b6 3cbe
000000d0: 1168 533d 5061 a73e 60a9 143c aedc 80bc
000000e0: cb00 9fbe 0fbb 64be 5a67 b1bd b8e5 15bd
000000f0: baef 7fbe b49c 29be 46f1 253e 0caf 8abe

autoencoders.node4.decoder.model.2.bias f4 [8]
0.020213787 -0.30427483 0.65409964 -0.437916 -0.16506986 0.19744839 -0.2178781 0.19942425
00000000: 6297 a53c e9c9 9bbe 1373 273f 8736 e0be
00000010: 1308 29be e92f 4a3e 701b 5fbe df35 4c3e

autoencoders.node4.decoder.model.4.weight f4 [5, 8]
0.27077198 -0.33045185 0.3323891 -0.2626479 0.1377134 -0.13312773 0.1561127 0.19780272
0.029489053 0.00017789006 0.033937592 0.033826925 0.042539954 0.014221438 -0.15048066 -0.09181692
0.35813314 0.07479823 0.528759 -0.7651705 0.3093342 0.40411332 0.08465511 0.2939699
-0.060844146 -0.065651506 -0.075076364 0.06185396 -0.113302946 0.03138155 0.13120487 0.23878783
0.34363934 0.13751575 -0.7625925 0.37946436 -0.23873171 0.12245358 -0.13185841 0.1341285
00000000: a0a2 8a3e fc30 a9be e72e aa3e c979 86be
00000010: be04 0d3e a352 08be 02dc 1f3e cc8c 4a3e
00000020: 0793 f13c 0088 3a39 2502 0b3d 1a8e 0a3d
00000030: 603e 2e3d 0901 693c 9a17 1abe 820a bcbd
00000040: 3a5d b73e d02f 993d c05c 073f 37e2 43bf
00000050: 0d61 9e3e f1e7 ce3e a95f ad3d 3983 963e
00000060: b637 79bd 4c74 86bd a3c1 99bd 945a 7d3d
00000070: 600b e8bd f189 003d 925a 063e cc84 743e
00000080: 7ff1 af3e eed0 0c3e 4339 43bf 2749 c23e
00000090: 1676 74be f1c8 fa3d e405 07be fb58 093e

autoencoders.node4.decoder.model.4.bias f4 [5]
0.3316324 0.74566436 0.2967298 0.5475129 0.0321262
00000000: b9cb a93e dce3 3e3f f8ec 973e ce29 0c3f
00000010: c396 033d

autoencoders.node5.encoder.model.0.weight f4 [8, 4]
0.782262 0.8831421 -0.29884726 0.35586944 1.0156107 1.1430418 0.1477623 -0.2845021
0.33692822 0.16026442 -0.4777336 -0.12817219 0.93954664 0.48441517 -0.12043768 -0.32785493
0.43192303 0.30805412 0.21779436 0.6537801 0.6499235 0.42112517 0.42572564 0.56547076
1.0015937 0.33925667 0.35492176 -0.080133274 0.80922526 0.9929352 -0.2624228 0.27271503
00000000: 5342 483f 9a15 623f 8202 99be 8534 b63e
00000010: 88ff 813f 324f 923f 004f 173e 42aa 91be
00000020: db81 ac3e 5b1c 243e 8099 f4be 923f 03be
00000030: 2186 703f 4405 f83e 08a8 f6bd 9adc a7be
00000040: 0425 dd3e 45b9 9d3e 7c05 5f3e 225e 273f
00000050: 6361 263f b89d d73e b6f8 d93e b1c2 103f
00000060: 3934 803f 0db3 ad3e 4eb8 b53e ea1c a4bd
00000070: 6329 4f3f 0031 7e3f 485c 86be 4ea1 8b3e

autoencoders.node5.encoder.model.0.bias f4 [8]
0.8419212 1.0793155 1.1809019 1.2043039 0.64304626 0.45416903 1.2301508 0.54122275
00000000: 2688 573f 0327 8a3f cb27 973f a126 9a3f
00000010: ae9e 243f d888 e83e 9575 9d3f 938d 0a3f

autoencoders.node5.encoder.model.2.weight f4 [8, 8]
0.47635323 0.6986933 1.222587 1.0771435 0.8593698 0.27771595 0.8379231 0.40376937
0.38533673 0.72444 0.52925086 0.50177586 -0.27386126 -0.26595557 0.7072323 0.34673604
0.7086499 0.03684624 0.7876746 0.47517595 0.59056526 0.59392774 0.5956787 0.47262675
0.43266356 0.9565572 0.35889053 0.86576456 0.4354045 0.40570956 0.78947175 0.533868
0.5276336 0.80512756 1.1999154 0.9625276 0.4118379 0.19971088 1.0035183 0.71847636
0.1654904 0.3143629 -0.17145568 -0.26340196 0.11080573 -0.31927156 -0.33095038 -0.3145453
0.53798306 0.8189889 1.0257746 0.7083659 0.35959378 0.65301514 1.0031763 0.7693604
0.58156747 0.47479808 1.0880896 0.23664695 0.49195957 0.24840379 0.9731556 0.5007504
00000000: 92e4 f33e 90dd 323f bb7d 9c3f d7df 893f
00000010: a9ff 5b3f c930 8e3e 2182 563f dcba ce3e
00000020: db4a c53e e674 393f fc7c 073f 6274 003f
00000030: 8b37 8cbe 542b 88be 2d0d 353f 6387 b13e
00000040: 146a 353f 15ec 163d 0ba5 493f 434a f33e
00000050: 492f 173f a60b 183f 667e 183f 22fc f13e
00000060: 1486 dd3e efe0 743f 80c0 b73e bfa2 5d3f
00000070: 57ed de3e 2ab9 cf3e d21a 4a3f 93ab 083f
00000080: ff12 073f d71c 4e3f d496 993f 3568 763f
00000090: 6bdc d23e 0281 4c3e 4a73 803f 11ee 373f
000000a0: 5176 293e 2df4 a03e 1492 2fbe 9fdc 86be
000000b0: 1dee e23d 9077 a3be 5472 a9be 150c a1be
000000c0: 42b9 093f 42a9 513f 954c 833f 7857 353f
000000d0: ad1c b83e 002c 273f 1568 803f cef4 443f
000000e0: 9be1 143f bc18 f33e 8546 8b3f 9453 723e
000000f0: 20e2 fb3e 905d 7e3e ba20 793f 2e31 003f

autoencoders.node5.encoder.model.2.bias f4 [8]
0.59968287 0.4243511 0.4885784 0.4770488 0.58767676 -0.21967573 0.3737169 0.12832393
00000000: d184 193f 8c44 d93e f326 fa3e be3f f43e
00000010: fc71 163f adf2 60be d257 bf3e 5967 033e

autoencoders.node5.encoder.model.4.weight f4 [8, 8]
-0.4573 -0.13968597 0.16535462 -0.3735995 -0.38652152 0.32368913 -0.66834015 -0.580515
0.5836125 0.40087676 0.33647484 0.7822151 0.6831297 -0.20195465 0.530143 0.6576623
1.0073524 0.64275414 0.22267301 0.27691817 0.7732107 0.26129997 0.85055137 0.29238597
-0.64135075 -0.4219943 -0.4202259 -0.80436134 -0.4257767 0.23688394 -0.92381036 -0.72767115
1.0815264 0.39079583 0.31792662 0.87966263 1.1838773 -0.30449852 0.91860306 0.10395398
0.9749217 0.6163303 0.090212665 0.80619746 0.87544 -0.21817622 0.95509094 0.590034
0.681465 0.03370679 0.682964 0.89902586 0.5810568 0.19969477 0.58295625 0.54352766
0.19181658 -0.018500837 0.45840207 0.45215702 -0.080612995 -0.25220132 0.1073939 0.65542674
00000000: 3a23 eabe d709 0fbe b952 293e 6f48 bfbe
00000010: 26e6 c5be 95ba a53e 5718 2bbf a29c 14bf
00000020: a167 153f b83f cd3e 6e46 ac3e 403f 483f
00000030: 97e1 2e3f 33cd 4ebe 74b7 073f 8e5c 283f
00000040: ecf0 803f 898b 243f 6504 643e 38c8 8d3e
00000050: 23f1 453f 1cc9 853e bcbd 593f 9db3 953e
00000060: 902f 24bf a30f d8be d927 d7be a0ea 4dbf
00000070: 67ff d9be b491 723e d67e 6cbf a848 3abf
00000080: 756f 8a3f 6416 c83e 47c7 a23e 9231 613f
00000090: 4b89 973f 3be7 9bbe 9229 6b3f d3e5 d43d
000000a0: 7894 793f d3c7 1d3f 6bc1 b83d f562 4e3f
000000b0: d61c 603f 9669 5fbe d780 743f 780c 173f
000000c0: 7e74 2e3f 2210 0a3d bbd6 2e3f 8f26 663f
000000d0: 23c0 143f c97c 4c3e 9f3c 153f a124 0b3f
000000e0: 916b 443e 118f 97bc adb3 ea3e 2081 e73e
000000f0: 6d18 a5bd 8820 81be 55f1 db3d 0cca 273f

autoencoders.node5.encoder.model.4.bias f4 [8]
-0.06301813 0.1802352 -0.22812545 -0.45930272 0.473708 0.3260818 0.54446226 -0.0932577
00000000: a60f 81bd 948f 383e b899 69be ba29 ebbe
00000010: db89 f23e 32f4 a63e e161 0b3f e5fd bebd

autoencoders.node5.decoder.model.0.weight f4 [8, 8]
0.28464866 -0.26481754 -0.20885557 -0.15967189 -0.29065377 -0.12878594 0.12510334 -0.12021926
-0.12213349 -0.10544278 -0.2012344 -0.42092276 -0.30536473 0.20966098 0.3075806 0.2156544
-0.22676218 0.15939777 0.0028989296 -0.07940208 0.10828736 -0.10665927 -0.37450132 -0.10512183
0.25564945 -0.15739803 -0.3639901 -0.24959552 -0.17809017 0.22500414 0.19387023 0.43991262
0.2421793 0.34435013 -0.33987486 0.33162865 0.062414438 -0.34110308 0.03758073 0.1961889
-0.25970268 0.08283627 0.17244318 -0.19931225 0.22140656 0.24138513 -0.434368 -0.4847757
-0.014711993 0.026579306 -0.4382598 -0.37569633 -0.3129059 -0.009167668 0.5280237 0.5540142
0.061564147 -0.034211636 0.1398566 0.3375629 0.033348024 0.18394056 -0.20880333 -0.19635288
00000000: 78bd 913e 2a96 87be 3cde 55be 0781 23be
00000010: 92d0 94be 76e0 03be 171b 003e 8435 f6bd
00000020: 2021 fabd 62f2 d7bd 6410 4ebe 3083 d7be
00000030: c458 9cbe 5eb1 563e 347b 9d3e 82d4 5c3e
00000040: 5834 68be 2b39 233e f8fb 3d3b 8f9d a2bd
00000050: c3c5 dd3d 2d70 dabd a3be bfbe 1d4a d7bd
00000060: 7ce4 823e f32c 21be e95c babe f895 7fbe
00000070: 455d 36be 7c67 663e eb85 463e 3a3c e13e
00000080: dafd 773e a94e b03e 1404 aebe 3bcb a93e
00000090: 48a6 7f3d 10a5 aebe 40ee 193d bee5 483e
000000a0: c0f7 84be 10a6 a93d f294 303e 8318 4cbe
000000b0: 67b8 623e aa2d 773e 7c65 debe 8534 f8be
000000c0: 920a 71bc d8bc d93c 9763 e0be 455b c0be
000000d0: 3435 a0be fd33 16bc 902c 073f e0d3 0d3f
000000e0: b02a 7c3d 8021 0cbd 9236 0f3e 0bd5 ac3e
000000f0: f097 083d ea5a 3c3e 8ad0 55be bb10 49be

autoencoders.node5.decoder.model.0.bias f4 [8]
0.323533 0.21514262 0.056846168 0.45116258 -0.07078099 0.21240717 -0.24841659 -0.14663407
00000000: 1ea6 a53e 594e 5c3e 87d7 683d c8fe e63e
00000010: a0f5 90bd 4481 593e eb60 7ebe 3e27 16be

autoencoders.node5.decoder.model.2.weight f4 [8, 8]
0.23119125 -0.09444168 0.3509769 -0.16066585 0.23791572 -0.34769818 -0.11147411 -0.08547807
-0.10040077 0.4343372 0.1865361 0.51281875 -0.19789521 -0.47662905 0.20782906 -0.13373001
-0.12270949 0.039823808 0.17988805 0.18561992 0.3383601 -0.24262394 0.48896593 -0.07931277
-0.31230542 0.1573994 -0.23139021 -0.26973706 -0.0063819885 -0.28874713 0.03885974 0.2273939
0.0011527833 0.0053727957 -0.22066578 0.13082668 -0.10339853 0.4820025 -0.41390383 -0.1809462
-0.1915541 -0.109118655 0.060217947 -0.020186484 0.13589677 -0.23916942 -0.17729084 -0.17447223
0.47877845 0.35802177 0.19758755 0.039422728 -0.1232228 -0.33201602 0.34470665 0.3026286
0.4617363 0.3476153 0.32492018 0.2365265 -0.18335463 0.03446665 0.0044204956 0.23984876
00000000: 66bd 6c3e a46a c1bd 3fb3 b33e 9785 24be
00000010: 2ea0 733e 7f05 b2be 8a4c e4bd 200f afbd
00000020: eb9e cdbd 7261 de3e 5203 3f3e 1748 033f
00000030: 0ba5 4abe b908 f4be 24d1 543e 85f0 08be
00000040: 1d4f fbbd 4a1e 233d 9334 383e 2613 3e3e
00000050: 893d ad3e 6972 78be be59 fa3e bc6e a2bd
00000060: 7fe6 9fbe 4f2d 213e 8ef1 6cbe fa1a 8abe
00000070: 0020 d1bb aad6 93be 642b 1f3d f2d9 683e
00000080: fd18 973a 470e b03b 36f6 61be 6ef7 053e
00000090: 9cc2 d3bd 08c9 f63e 34eb d3be f649 39be
000000a0: c226 44be 9a79 dfbd 18a7 763d 205e a5bc
000000b0: 8628 0b3e d4e8 74be bb8b 35be d9a8 32be
000000c0: 7322 f53e a14e b73e 6454 4a3e ba79 213d
000000d0: 3c5c fcbd 01fe a9be 647d b03e 23f2 9a3e
000000e0: b368 ec3e a2fa b13e f05b a63e 0134 723e
000000f0: 51c1 3bbe e72c 0d3d ced9 903b ea9a 753e

autoencoders.node5.decoder.model.2.bias f4 [8]
-0.13200262 0.6376453 0.33032706 -0.11194946 0.09443011 -0.34529766 -0.14564027 0.022093898
00000000: b22b 07be b93c 233f a120 a93e c245 e5bd
00000010: 9364 c13d dbca b0be b922 15be 43fe b43c

autoencoders.node5.decoder.model.4.weight f4 [4, 8]
-0.25716245 -0.36682197 -0.07789699 0.11270203 -0.33504203 -0.09037134 0.067464754 0.44054294
0.19226971 -0.26126724 0.2121926 0.10499286 0.21825488 -0.039328158 0.38171065 -0.24501064
0.17208716 -0.039376456 0.1496784 -0.21736652 0.038451087 -0.31475118 -0.050370745 -0.04069856
-0.010279775 0.4536574 0.29836902 0.3463948 -0.4830176 0.33946624 0.23533408 0.19364813
00000000: ccaa 83be 17d0 bbbe 7588 9fbd 52d0 e63d
00000010: a18a abbe 9c14 b9bd f62a 8a3d d88e e13e
00000020: 5ae2 443e d2c4 85be 0449 593e 7f06 d73d
00000030: 357e 5f3e 9016 21bd 946f c33e 12e4 7abe
00000040: 9e37 303e 3549 21bd 4b45 193e 5495 5ebe
00000050: e37e 1d3d 1127 a1be 8e51 4ebd 89b3 26bd
00000060: 806c 28bc c845 e83e d3c3 983e a95a b13e
00000070: 154e f7be 85ce ad3e 6bfb 703e b24b 463e

autoencoders.node5.decoder.model.4.bias f4 [4]
-0.44985506 -0.3232136 0.008927388 -0.14546302
00000000: 6753 e6be 417c a5be 2e44 123c 42f4 14be

exp_avg f4 [8, 3]
-2.5548128e-05 -0.00034130082 2.7543729e-05 0.0 0.0 0.0 6e-45 6e-45
6e-45 -0.0020234366 -0.0028670104 -0.0008867212 0.0014462761 0.0015247111 0.00031324493 -4.5315857e-05
-0.00040937614 -0.00019632973 0.00057926134 0.00018675078 0.00013110727 0.0 0.0 0.0
00000000: 3050 d6b7 9ff0 b2b9 b50d e737 0000 0000
00000010: 0000 0000 0000 0000 0400 0000 0400 0000
00000020: 0400 0000 a29b 04bb 74e4 3bbb da72 68ba
00000030: f990 bd3a d1d8 c73a 063b a439 8811 3eb8
00000040: 89a1 d6b9 dcdd 4db9 92d9 173a 88d2 4339
00000050: d779 0939 0000 0000 0000 0000 0000 0000

exp_avg_sq f4 [8, 3]
0.00020576418 0.000344635 1.4235255e-05 0.0 0.0 0.0 3.1675728e-11 1.7201854e-08
3.3309024e-12 0.00016632485 0.00035569168 2.7250726e-05 0.0006844783 0.00088420766 3.6537946e-05 0.0019930599
0.0030691153 0.00013992137 0.00089583156 0.0014408561 6.3306186e-05 0.0 0.0 0.0
00000000: 67c2 5739 20b0 b439 f4d3 6e37 0000 0000
00000010: 0000 0000 0000 0000 b34f 0b2e 47c3 9332
00000020: 3464 6a2c 7d67 2e39 217c ba39 7d98 e437
00000030: 906e 333a 2cca 673a 5240 1938 ff9d 023b
00000040: 3623 493b dbb7 1239 3dd6 6a3a 1cdb bc3a
00000050: 40c3 8438 0000 0000 0000 0000 0000 0000

exp_avg f4 [8]
9.4556955e-05 0.0 6e-45 -8.321495e-05 0.0004899944 0.00023559634 0.0003583915 0.0
00000000: e14c c638 0000 0000 0400 0000 b083 aeb8
00000010: f872 003a 690a 7739 7ee6 bb39 0000 0000

exp_avg_sq f4 [8]
7.903664e-06 0.0 3.8813022e-10 7.684389e-06 2.1826037e-05 7.0709575e-05 3.392377e-05 0.0
00000000: fa99 0437 0000 0000 7960 d52f 33ec 0037
00000010: 0f17 b737 ea49 9438 5f49 0e38 0000 0000

exp_avg f4 [8, 8]
0.0 0.0 0.0 0.0 0.0 0.0 0.0 0.0
6e-45 0.0 0.0 0.0 6e-45 6e-45 0.0 0.0
6e-45 0.0 6e-45 -6e-45 6e-45 6e-45 6e-45 0.0
0.003361393 0.0 -6e-45 0.00048166333 0.0019153353 0.0017525827 0.0013356176 0.0
0.0006801357 0.0 -6e-45 7.9542835e-05 0.0007266364 0.0004983747 0.0004746532 0.0
-0.0041380688 0.0 -6e-45 -0.0011612109 -0.0021895925 -0.0021900209 -0.0019854303 0.0
0.0 0.0 0.0 0.0 0.0 0.0 0.0 0.0
0.0 0.0 0.0 0.0 0.0 0.0 0.0 0.0
00000000: 0000 0000 0000 0000 0000 0000 0000 0000
00000010: 0000 0000 0000 0000 0000 0000 0000 0000
00000020: 0400 0000 0000 0000 0000 0000 0000 0000
00000030: 0400 0000 0400 0000 0000 0000 0000 0000
00000040: 0400 0000 0000 0000 0400 0000 0400 0080
00000050: 0400 0000 0400 0000 0400 0000 0000 0000
00000060: d14a 5c3b 0000 0000 0400 0080 c287 fc39
00000070: fd0b fb3a ebb6 e53a e40f af3a 0000 0000
00000080: 224b 323a 0000 0000 0400 0080 3cd0 a638
00000090: be7b 3e3a 5ca5 023a e0da f839 0000 0000
000000a0: a398 87bb 0000 0000 0400 0080 c633 98ba
000000b0: 447f 0fbb 7486 0fbb fe1d 02bb 0000 0000
000000c0: 0000 0000 0000 0000 0000 0000 0000 0000
000000d0: 0000 0000 0000 0000 0000 0000 0000 0000
000000e0: 0000 0000 0000 0000 0000 0000 0000 0000
000000f0: 0000 0000 0000 0000 0000 0000 0000 0000

exp_avg_sq f4 [8, 8]
0.0 0.0 0.0 0.0 0.0 0.0 0.0 0.0
3.2383167e-12 0.0 0.0 0.0 5.527465e-13 1.0875638e-13 0.0 0.0
8.953665e-05 0.0 7.383734e-12 1.0088318e-11 1.4025665e-06 8.960008e-06 3.2906156e-09 0.0
0.002105312 0.0 1.1368886e-11 2.4295046e-05 0.000279922 0.0005236113 0.0001746012 0.0
0.00617235 0.0 2.8572419e-11 5.3471285e-06 0.00033119423 0.0013665551 0.0001921506 0.0
0.005371719 0.0 1.995993e-10 4.506592e-05 0.00046836605 0.0012585953 0.00030934584 0.0
0.0 0.0 0.0 0.0 0.0 0.0 0.0 0.0
0.0 0.0 0.0 0.0 0.0 0.0 0.0 0.0
00000000: 0000 0000 0000 0000 0000 0000 0000 0000
00000010: 0000 0000 0000 0000 0000 0000 0000 0000
00000020: 54e0 632c 0000 0000 0000 0000 0000 0000
00000030: 9595 1b2b c9e5 f429 0000 0000 0000 0000
00000040: 9fc5 bb38 0000 0000 62e5 012d bf79 312d
00000050: d13f bc35 f152 1637 1f21 6231 0000 0000
00000060: 46f9 093b 0000 0000 e900 482d 37cd cb37
00000070: 7fc2 9239 f642 093a 2715 3739 0000 0000
00000080: 6d41 ca3b 0000 0000 5e53 fb2d 7c6b b336
00000090: 23a4 ad39 fb1d b33a 097c 4939 0000 0000
000000a0: 3f05 b03b 0000 0000 3576 5b2f 2a05 3d38
000000b0: 078f f539 73f7 a43a b22f a239 0000 0000
000000c0: 0000 0000 0000 0000 0000 0000 0000 0000
000000d0: 0000 0000 0000 0000 0000 0000 0000 0000
000000e0: 0000 0000 0000 0000 0000 0000 0000 0000
000000f0: 0000 0000 0000 0000 0000 0000 0000 0000

exp_avg f4 [8]
0.0 6e-45 6e-45 0.00027611194 0.00033952476 -0.00018585651 0.0 0.0
00000000: 0000 0000 0400 0000 0400 0000 1ec3 9039
00000010: 3e02 b239 7ae2 42b9 0000 0000 0000 0000

exp_avg_sq f4 [8]
0.0 6.9250825e-14 1.898096e-06 2.8580125e-05 9.942915e-05 8.251566e-05 0.0 0.0
00000000: 0000 0000 62f0 9b29 15c2 fe35 5abf ef37
00000010: 9e84 d038 420c ad38 0000 0000 0000 0000

exp_avg f4 [8, 8]
0.0 6e-45 6e-45 -0.0065899272 -0.005367142 -0.0055948296 0.0 0.0
0.0 6e-45 6e-45 0.0038497823 0.0033617464 0.003543513 0.0 0.0
0.0 -6e-45 -6e-45 -0.00047571032 -0.0002997719 -0.00048826577 0.0 0.0
0.0 -6e-45 -6e-45 -0.000542417 -0.0005688913 -0.0006272921 0.0 0.0
0.0 -6e-45 -6e-45 -0.0009492555 -0.0010036665 -0.00095017 0.0 0.0
0.0 6e-45 6e-45 0.00713143 0.0058950596 0.006444621 0.0 0.0
0.0 6e-45 6e-45 0.009169955 0.0072960355 0.008084951 0.0 0.0
0.0 6e-45 6e-45 -0.005751098 -0.004525776 -0.004890617 0.0 0.0
00000000: 0000 0000 0400 0000 0400 0000 51f0 d7bb
00000010: dade afbb d554 b7bb 0000 0000 0000 0000
00000020: 0000 0000 0400 0000 0400 0000 a14c 7c3b
00000030: bf50 5c3b 483a 683b 0000 0000 0000 0000
00000040: 0000 0000 0400 0080 0400 0080 c268 f9b9
00000050: b42a 9db9 ecfd ffb9 0000 0000 0000 0000
00000060: 0000 0000 0400 0080 0400 0080 fd30 0eba
00000070: a621 15ba dc70 24ba 0000 0000 0000 0000
00000080: 0000 0000 0400 0080 0400 0080 75d7 78ba
00000090: 768d 83ba d414 79ba 0000 0000 0000 0000
000000a0: 0000 0000 0400 0000 0400 0000 c5ae e93b
000000b0: 582b c13b 662d d33b 0000 0000 0000 0000
000000c0: 0000 0000 0400 0000 0400 0000 943d 163c
000000d0: 9513 ef3b be76 043c 0000 0000 0000 0000
000000e0: 0000 0000 0400 0000 0400 0000 b573 bcbb
000000f0: f64c 94bb 7841 a0bb 0000 0000 0000 0000
